nstepTD_A2C_CartPole/models/episodes_200.pt (torch_old, 1914 bytes, 5 tensors)

ActorCritic.0.weight f4 [24, 4]
0	0x3e93fd90	0.2890439
1	0xbf369ab3	-0.713298
2	0x3e94c82b	0.29058966
3	0x3edb51fe	0.42835993
4	0xbdaffe78	-0.08593458
5	0x3d9d9744	0.07694867
6	0xbe0c38a4	-0.13693482
7	0xbdc0b3bc	-0.094092816
8	0x3d37448d	0.04474311
9	0x3ed37080	0.41296768
10	0x3e0ef4f6	0.13960633
11	0xbefa866b	-0.48930678
12	0x3e69541f	0.22785996
13	0x3eb2f25d	0.34950534
14	0xbe66973e	-0.22518632
15	0xbf0ffc7b	-0.5624463
16	0x3f16426f	0.5869512
17	0x3eccfd96	0.4003722
18	0x3e649916	0.22324023
19	0x3effe1c1	0.49976924
20	0x3ea981eb	0.33106932
21	0xbe2b0c92	-0.16704014
22	0xbe92a772	-0.28643376
23	0xbe95f00c	-0.29284704
24	0xbe369bf0	-0.17832923
25	0xbe1f5c84	-0.15562636
26	0xbf332cbb	-0.6999013
27	0xbf382952	-0.7193805
28	0x3e2a105b	0.16607802
29	0xbe74e789	-0.23916449
30	0x3ea1b090	0.3158002
31	0xbe933646	-0.28752345
32	0x3af8b9fb	0.0018976325
33	0xbe410041	-0.18847753
34	0x3ddf44fd	0.1090183
35	0x3f027256	0.5095571
36	0xbe790cc9	-0.24321283
37	0xbea45d4f	-0.3210244
38	0x3ecbf5c5	0.39835945
39	0x3e47a063	0.19494776
40	0x3ecbac0e	0.39779705
41	0x3ee11253	0.43959293
42	0x3e22c9ef	0.15897344
43	0xbedffe0c	-0.4374851
44	0x3e477b69	0.19480671
45	0x3e9b3697	0.30315086
46	0x3d49f370	0.049304426
47	0x3ed93d30	0.42429495
48	0xbd8f1293	-0.069859646
49	0x3d6bc0c8	0.057556897
50	0x3f083955	0.5321248
51	0xbc442b31	-0.011973188
52	0xbf0104c8	-0.5039792
53	0x3db05e1b	0.08611699
54	0xbeaf54d1	-0.34244397
55	0xbecbccd6	-0.39804715
56	0x3d8b34ae	0.06797157
57	0xbe64e0be	-0.22351357
58	0x3eb095e2	0.34489352
59	0x3e5a7726	0.21334514
60	0xbeff9ae9	-0.49922875
61	0xbece82a8	-0.40334058
62	0x3e287293	0.16449957
63	0xbda8d2a7	-0.08243304
64	0x3da760d6	0.08172767
65	0x3ee3a317	0.44460365
66	0xbec83f17	-0.39110634
67	0xbe6cd54b	-0.2312824
68	0xbe69a778	-0.2281779
69	0x3e9663d8	0.2937305
70	0x3d2183d5	0.039432365
71	0x3e8a7680	0.27043533
72	0x3e4a2784	0.19741637
73	0xbe2dcac8	-0.16971886
74	0x3ec77698	0.38957667
75	0xbdcff938	-0.101549566
76	0x3ec25ac8	0.37959886
77	0xbe8962fb	-0.2683333
78	0x3d8489dc	0.06471607
79	0xbeaa12f7	-0.33217594
80	0x3d438c02	0.047740944
81	0x3e83695e	0.25666326
82	0x3eab8454	0.33499396
83	0x3d9e7f93	0.077391766
84	0x3df77460	0.12082744
85	0xbdc80120	-0.097658396
86	0x3ed44562	0.41459185
87	0xbd1b1980	-0.037866116
88	0xbe95feb1	-0.29295877
89	0x3f0aef8d	0.54271775
90	0xbe87f2f6	-0.26552552
91	0xbdab9bbf	-0.083793156
92	0xbdcc6a1e	-0.09981178
93	0xbf1a2595	-0.60213596
94	0xbed46fd6	-0.41491574
95	0x3ecc56a0	0.3990984

ActorCritic.0.bias f4 [24]
0	0x3df041f9	0.11731333
1	0x3f6765e7	0.90389866
2	0x3ee6ba14	0.4506384
3	0xbe3ebef3	-0.18627529
4	0x3e71f59f	0.23628853
5	0x3f1b00d0	0.60548115
6	0xbe5a751d	-0.21333738
7	0x3f25ea26	0.6481041
8	0xbecb03d5	-0.3965136
9	0x3f1782f7	0.5918421
10	0xbe949431	-0.2901931
11	0x3f54f28d	0.83182603
12	0x3f3303ca	0.69927657
13	0x3f1b73e6	0.6072372
14	0x3f0fd9bc	0.5619161
15	0x3f6beaeb	0.9215533
16	0x3eb2521f	0.34828278
17	0x3f019f50	0.50633717
18	0xbef3b730	-0.47600698
19	0x3f2adb76	0.6674112
20	0x3f68dea1	0.90964705
21	0xbe76ef5c	-0.24114746
22	0x3eb5485f	0.35406777
23	0x3f12eb1d	0.57390004

Actor.0.weight f4 [2, 24]
0	0xbe565de5	-0.20934255
1	0x3d86573d	0.06559608
2	0xbcb1474d	-0.021640444
3	0x3e8c62a6	0.27419013
4	0x3cb3ddae	0.021956291
5	0xbd8593e1	-0.06522346
6	0xbcd4d048	-0.025978222
7	0xbcb40cc7	-0.021978749
8	0x3e325e3b	0.17418759
9	0x3c0c8d33	0.008578586
10	0x3c362690	0.011117592
11	0xbd626ba3	-0.05527843
12	0xbdece4fe	-0.11567114
13	0xba5e75e0	-0.00084861927
14	0xbd92b9ee	-0.071643695
15	0xbc44c1d9	-0.0120091075
16	0x3e57f303	0.21088795
17	0x3d1fb986	0.03899529
18	0xbc05b5e0	-0.008161038
19	0xbdda430d	-0.1065732
20	0x3e2b3d23	0.1672254
21	0xbe34c1cf	-0.17652057
22	0x3e4a0426	0.19728145
23	0xbe642ff3	-0.22283916
24	0xbdc49b0f	-0.095998876
25	0xbd24b517	-0.040211763
26	0x3d30aacc	0.043131635
27	0x3ddcdea3	0.10784652
28	0x3eaced76	0.33774918
29	0xbde2a5c3	-0.11066773
30	0xbcb3948b	-0.021921417
31	0xbc60c0b3	-0.013717818
32	0xbdce773c	-0.10081336
33	0x3ddb644c	0.107124895
34	0xbe68df49	-0.22741427
35	0xbd619349	-0.055072103
36	0xbddc6b04	-0.10762599
37	0xbe40c515	-0.18825181
38	0x3ea5734a	0.3231452
39	0x3df027a6	0.11726312
40	0x3db3223e	0.087467656
41	0x3c66dc43	0.0140906
42	0xbda51098	-0.08059806
43	0xbdc961ab	-0.09833082
44	0xbe02ceb7	-0.12774168
45	0x3e3b60ec	0.18298692
46	0xbd343713	-0.043997835
47	0x3e356846	0.17715558

Actor.0.bias f4 [2]
0	0xbd6ec353	-0.058291744
1	0x3dd43507	0.10361677

Critic.0.weight f4 [1, 24]
0	0x3f58d2e6	0.84696805
1	0x3ff7f6eb	1.9372228
2	0x3f9aa00e	1.2080095
3	0xbeb5ab64	-0.35482323
4	0x3efc61c8	0.4929335
5	0x3fe7e591	1.8116933
6	0xbfadb4f4	-1.3570848
7	0x3fedb1be	1.8569868
8	0xbf16a157	-0.58839935
9	0x4006e54d	2.1077454
10	0xbef68461	-0.48147872
11	0x40107cd3	2.2576187
12	0x400a7415	2.163335
13	0x3fd37963	1.6521419
14	0x40103c27	2.2536714
15	0x4006d6cc	2.1068602
16	0x3f877b65	1.0584532
17	0x4022f207	2.5460222
18	0xbcadacb0	-0.021200508
19	0x40075f82	2.1152043
20	0x3fec4c98	1.8460875
21	0xbae43280	-0.001741007
22	0x3f8bad7f	1.0912322
23	0x3ff58a0a	1.9182751
