nstepTD_A2C_CartPole/models/episodes_1600.pt (torch_old, 1914 bytes, 5 tensors)

ActorCritic.0.weight f4 [24, 4]
00000000: 4fad 243f 2061 3bbf fd74 233e e17b afba
00000010: 79f8 c93e d92b 473c c433 6dbd 6fad 7cbe
00000020: 8dc3 ab3e a021 1d3e 624c b63e 5439 e6be
00000030: dadd e0be f524 3dbf d0cd e4bf d82c 55bf
00000040: 52aa 043f da10 913c 806b f63e 2fc1 d13e
00000050: 49c4 323f 289a a0be 3eaf 53be 2879 d0be
00000060: af5d 88bf 6f93 7bbf c398 04c0 baa0 75bf
00000070: 9f3f 263f ace7 9cbe 351d c63e 2bdc e3be
00000080: cb43 3abf 0a84 703e cef0 a53f 63cf 5d3f
00000090: dc49 893e a0e1 aabe 85b5 0a3f d78f 7f3d
000000a0: 332d 973f 79a0 423f e320 c8bd 9aa7 c03c
000000b0: eb99 113f 554a 2e3e bfcc 3a3e 1b76 993e
000000c0: e719 ce3e da95 a6ba c9e6 283f 805a 0cbe
000000d0: c286 843c 572d cf3c 54d0 98be bc38 0dbf
000000e0: 34b6 083f 8c5b 88be 1027 053f 40d4 d83d
000000f0: bf89 893d 28a8 c9be 7d47 953e bff1 60be
00000100: ce48 b53e 5877 0b3e 5f77 71be 98cf 59be
00000110: f4e7 703e bd86 723e bdc7 423e 81aa 253e
00000120: 8427 4a3e c8ca 2dbe 9876 c73e 38f9 cfbd
00000130: 5388 403f cf74 c5be 2356 163e f8b7 ecbe
00000140: ce9e 053f 4762 3a3e 46e7 d53e 49b5 88bd
00000150: 6074 f73d 2001 c8bd 6245 d43e 8019 1bbd
00000160: 1425 d13d 909c c83e d1b9 f1bd 760c 20be
00000170: 8dfd e33e 7a58 0dbf 490c 8abe 4936 603e
0.6432695 -0.73195076 0.15962596 -0.0013388359 0.39447382 0.01215645 -0.057910696 -0.24675535
0.3354763 0.15344858 0.3560515 -0.44965613 -0.4391926 -0.73884517 -1.7875309 -0.8327155
0.5182239 0.01770823 0.4812889 0.409677 0.6983076 -0.31367612 -0.20672318 -0.40717435
-1.065359 -0.9827184 -2.0718238 -0.95948374 0.6494083 -0.30645502 0.38694158 -0.44503912
-0.72759694 0.23487869 1.2964113 0.8664457 0.26814163 -0.33375263 0.54183227 0.062393036
1.1810669 0.7602611 -0.09771898 0.023517419 0.56875485 0.17020543 0.18242167 0.2997292
0.40254137 -0.0012709454 0.6597715 -0.13706398 0.016177539 0.025290174 -0.29846442 -0.55164695
0.5340302 -0.26632345 0.5201273 0.105873585 0.06715726 -0.39386106 0.29156104 -0.21967219
0.35407108 0.13619745 -0.23580693 -0.21270597 0.23525983 0.23684211 0.19021507 0.16178323
0.19741637 -0.16971886 0.38957667 -0.101549566 0.75208014 -0.3856568 0.14681296 -0.46234107
0.5219544 0.18201552 0.4177801 -0.066752024 0.12082744 -0.097658396 0.41459185 -0.037866116
0.1021215 0.39181948 -0.1180302 -0.15629753 0.4452938 -0.5521313 -0.26962498 0.21895708

ActorCritic.0.bias f4 [24]
00000000: 186e 403f 7f6c a33f 5e9b 703f 6cad a23b
00000010: ced0 753f e1c0 863f 7cc7 02bd ee8e 833f
00000020: 4b6a cb3d 7a00 7c3f 32c9 0fbe d79a 9d3f
00000030: bd38 893f 048d 7f3f a509 713f 624e a93f
00000040: eecf 5b3f a21a 603f 30b7 f3be 673d 8e3f
00000050: caf1 a43f 5cef 76be 42ac 483f 792b 813f
0.7516799 1.2767485 0.9398707 0.004964521 0.96021736 1.0527612 -0.031928524 1.0277994
0.09932383 0.9843823 -0.14041594 1.2312878 1.072044 0.9982455 0.9415534 1.3227046
0.8586415 0.8754064 -0.47600698 1.1112489 1.2886288 -0.24114746 0.78387845 1.0091392

Actor.0.weight f4 [2, 24]
00000000: 55ac a8bd 7995 053e a61d a63d 41d2 ba3f
00000010: 3bcc c7be bab2 e53e b7d5 0d3f 5307 813e
00000020: 1fd8 79bf 8604 77be 09a6 07be 5e68 8dbe
00000030: 6054 95be 49f7 3d3e c89b 7cbe 2212 7dbd
00000040: b374 c03e e451 b0be e0b5 05bc 49ac ad3e
00000050: dbcb 433d cfc1 34be d834 7e3d eafc 45be
00000060: 4e55 64be 7c2e d7bd 0c34 74bd 98eb 89bf
00000070: 87fb 3f3f a9e0 1fbf d118 1abf 634e 93be
00000080: 5d50 863f b0bf b63e 18ad abbd 31d1 293e
00000090: 3d01 8c3d 83cd bfbe e612 ff3e 4d0c 2b3e
000000a0: 86ca 9ebd f47f cb3e 9810 a5bd 974a 0bbf
000000b0: b046 08bc ec60 3b3e f2d1 ba3d 3135 173e
-0.08235995 0.130453 0.08111124 1.4595414 -0.39023003 0.4486292 0.5540423 0.252009
-0.975954 -0.2412282 -0.13246931 -0.27618688 -0.29165936 0.18551363 -0.24668801 -0.06178487
0.37589034 -0.34437478 -0.008161038 0.33920506 0.047801834 -0.17652057 0.062062114 -0.1933476
-0.22298166 -0.10506913 -0.05961995 -1.0775023 0.74993175 -0.6245218 -0.60194117 -0.28770742
1.0493275 0.3569312 -0.083826244 0.16583706 0.06836174 -0.3746148 0.49819106 0.16703911
-0.07753472 0.39746058 -0.08059806 -0.5441069 -0.008317634 0.18298692 0.09122075 0.14766385

Actor.0.bias f4 [2]
00000000: 22fe fabd 90e8 2b3e
-0.12255503 0.16787934

Critic.0.weight f4 [1, 24]
00000000: 036c 5a40 0fad 7f40 489f 3e40 17a8 aac0
00000010: 4829 2740 5b8d a140 0d0e 0dc1 44eb 9e40
00000020: e6be c2c0 2b5e 7640 697d 80c0 45cf 9240
00000030: a14b 8b40 37fa 3340 ed29 9d40 825f 6040
00000040: 8a1a 3740 ef9b 8340 b0ac adbc ff23 b040
00000050: abf2 8340 8032 e4ba 9507 0940 67de 7b40
3.4128425 3.9949377 2.9784718 -5.333019 2.6118946 5.0485053 -8.81593 4.966219
-6.085803 3.8494976 -4.015309 4.5878015 4.352982 2.812147 4.911368 3.5058293
2.8609948 4.112785 -0.021200508 5.504394 4.1233726 -0.001741007 2.1410878 3.9354494
