nstepTD_A2C_CartPole/models/episodes_1300.pt (torch_old, 1914 bytes, 5 tensors)

ActorCritic.0.weight f4 [24, 4]
00000000: 876a 123f 2485 33bf 9d85 cf3d a1d1 c93d
00000010: cb27 973e d035 6c3d 464b efbd a5ea 62be
00000020: 430e 713e 5338 4c3e f0fe 953e 8dfe dabe
00000030: f6e1 29be fdc0 21bf 6afc ccbf 4bd5 5abf
00000040: a332 d53e b611 7e3d f8eb c83e b0a5 d53e
00000050: 294b 193f fb6c 89be e82c 84be bf84 c0be
00000060: b22c 4fbf 3756 60bf 936b f3bf 0ba8 7abf
00000070: db8a 0c3f 1cd6 85be 110c a93e dc90 d5be
00000080: 9125 02bf 0d00 613e c9c7 a93f 477e 733f
00000090: d350 2c3e 76cd 93be 56cc f13e 9b87 a63d
000000a0: 5f08 833f 3aad 263f bd5f 17be ec9e e9bd
000000b0: 852c f03e 1f9c 5c3e a926 ed3d eef2 a33e
000000c0: c315 9b3e d46a 343d 78ff 173f de37 eebd
000000d0: 0de9 a7bd 197a 923d d18e b3be c3f2 05bf
000000e0: 5701 de3e e2bc 62be f68d e63e 6316 003e
000000f0: df9e 02bd b34f b2be 2887 683e f5be 4abe
00000100: 4626 823e 1df2 393e 858f 95be c68d 3ebe
00000110: b9ac 0b3e ac8c 903e 0992 f53d 6654 373e
00000120: 8427 4a3e c8ca 2dbe 9876 c73e 38f9 cfbd
00000130: 5407 273f 4549 aebe fe4b be3d 2391 ddbe
00000140: 5d3a d83e 2cd6 683e 4077 b63e 2973 30bd
00000150: 6074 f73d 2001 c8bd 6245 d43e 8019 1bbd
00000160: fb09 623b cf93 e03e 08df 3cbe 4a02 0ebe
00000170: 144b b13e 3f2d 02bf bfb8 acbe 0676 783e
0.571938 -0.7012503 0.101329066 0.09854437 0.29522547 0.057668507 -0.11684279 -0.22159822
0.23540597 0.19943361 0.29296064 -0.42772332 -0.16590104 -0.631851 -1.6014531 -0.8548171
0.41640195 0.06202861 0.3924253 0.41727972 0.5988031 -0.26840958 -0.2581551 -0.37601277
-0.80927575 -0.87631553 -1.9017204 -0.97912663 0.54899377 -0.26139915 0.33017018 -0.4171208
-0.5083857 0.21972676 1.3264095 0.9511456 0.16827707 -0.28867692 0.47226208 0.081313334
1.023693 0.6510807 -0.14782615 -0.11407265 0.46908966 0.2154393 0.115796395 0.32021278
0.3029004 0.04404719 0.5937419 -0.116317496 -0.08198748 0.071521945 -0.35069898 -0.5232355
0.43360397 -0.22142366 0.45030183 0.1250854 -0.031889793 -0.3482643 0.22707808 -0.19799407
0.25419825 0.18158765 -0.2921106 -0.1860877 0.13640107 0.28232324 0.119907446 0.17903289
0.19741637 -0.16971886 0.38957667 -0.101549566 0.65245557 -0.34040275 0.09291838 -0.43274793
0.42232028 0.2273795 0.35637856 -0.043078575 0.12082744 -0.097658396 0.41459185 -0.037866116
0.0034490812 0.4386277 -0.18444455 -0.1386806 0.34627593 -0.5085029 -0.337347 0.24263772

ActorCritic.0.bias f4 [24]
00000000: 0a2a 3d3f aad4 a53f f94d 753f 1135 32bd
00000010: 926d 7a3f b929 893f 2ff0 78bd 75fe 853f
00000020: 5969 163d ab64 803f d5af 14be d400 a03f
00000030: 299b 8b3f 0e2b 823f f1d5 753f 47b2 ab3f
00000040: 3da0 603f 4fcf 643f 30b7 f3be 53a5 903f
00000050: 5f5b a73f 5cef 76be 5839 4d3f 4a87 833f
0.7389227 1.2955525 0.958221 -0.04350764 0.9782344 1.0715858 -0.060775932 1.0468279
0.03672156 1.0030721 -0.145202 1.2500253 1.0906726 1.0169389 0.96029574 1.3413781
0.87744504 0.8937883 -0.47600698 1.1300453 1.3074759 -0.24114746 0.80165625 1.0275662

Actor.0.weight f4 [2, 24]
00000000: 0620 c4bd 82ec e93d 4bae 6f3d 0485 ae3f
00000010: bf25 bdbe f9d0 d03e fbb0 0a3f 9eb5 673e
00000020: 8315 5cbf 900e 65be bb33 e7bd 0fe8 8bbe
00000030: e903 94be 2610 1b3e e2a2 71be 81dd 82bd
00000040: 51ed b03e a1d8 acbe e0b5 05bc 5aba 9c3e
00000050: 50b7 303d cfc1 34be d134 303d fe77 49be
00000060: 649b 56be 0cf0 b5bd 1ca7 17bd b83c 7bbf
00000070: 41a8 3a3f b46f 15bf 14f4 16bf ca21 86be
00000080: 19de 6e3f d6c4 ad3e 67c5 d3bd 6dd0 263e
00000090: e3bf 863d d059 aebe 3896 f93e 8636 2d3e
000000a0: 665a 41bd ae06 c83e 9810 a5bd c4d1 02bf
000000b0: 4ed0 6fbb ec60 3b3e 05d2 e13d 4ab0 1a3e
-0.095764205 0.114220634 0.058515828 1.3634343 -0.3694286 0.40784433 0.541763 0.22627875
-0.85970324 -0.22368836 -0.11289164 -0.27325484 -0.28909233 0.15142879 -0.23597291 -0.06389905
0.34556058 -0.33759025 -0.008161038 0.30610925 0.04314357 -0.17652057 0.04301912 -0.1967468
-0.20957714 -0.08883676 -0.037024602 -0.98139524 0.72912985 -0.5837357 -0.58966184 -0.26197654
0.93307644 0.33939236 -0.10340386 0.16290446 0.06579568 -0.34052896 0.4874742 0.1691533
-0.04720535 0.39067596 -0.08059806 -0.51101327 -0.0036592665 0.18298692 0.11026386 0.15106311

Actor.0.bias f4 [2]
00000000: 2a24 f1bd b0fb 263e
-0.11774476 0.16306949

Critic.0.weight f4 [1, 24]
00000000: 5188 3b40 7d17 7f40 264a 3d40 3f22 7dc0
00000010: 2435 1e40 c12d 9940 7d87 ecc0 f8a0 9640
00000020: bf21 a7c0 1487 7340 51c7 50c0 8862 9040
00000030: 8090 8940 8f50 3a40 47ce 9640 921e 6240
00000040: eabf 3540 c0bd 8540 b0ac adbc 23b8 a640
00000050: dc4a 8240 8032 e4ba 401f 1340 5142 7240
2.930195 3.9858086 2.9576507 -3.9552152 2.4719934 4.786835 -7.391539 4.7071495
-5.2228694 3.8051195 -3.2621653 4.5120277 4.298889 2.911167 4.7126803 3.5331159
2.8398385 4.179413 -0.021200508 5.2099776 4.071638 -0.001741007 2.2987823 3.7852976
