nstepTD_A2C_CartPole/models/episodes_900.pt (torch_old, 1914 bytes, 5 tensors)

ActorCritic.0.weight f4 [24, 4]
0	0x3f078f40	0.5295296
1	0xbf29da10	-0.6634836
2	0xbc56ea9b	-0.013117458
3	0x3e99f154	0.3006693
4	0x3e208e9c	0.15679401
5	0x3dd9eae4	0.10640505
6	0xbe8d4fd3	-0.27599964
7	0xbe29a916	-0.16568407
8	0x3ddae5f7	0.106883936
9	0x3e88447e	0.26614755
10	0x3e05845b	0.13038771
11	0xbec7d113	-0.39026698
12	0x3e9df8a0	0.30853748
13	0xbe9628af	-0.29327914
14	0xbfa2f169	-1.2729923
15	0xbf5d2f3b	-0.8640019
16	0x3eb67dda	0.35642892
17	0x3e0be45f	0.13661335
18	0x3e42b1e7	0.19013177
19	0x3efe6425	0.4968578
20	0x3efe45c2	0.49662596
21	0xbe433c7d	-0.19066043
22	0xbed20a02	-0.4102326
23	0xbea6d08d	-0.32580987
24	0xbee734c3	-0.45157441
25	0xbf200cf4	-0.62519765
26	0xbfb85c75	-1.4403216
27	0xbf83272d	-1.024633
28	0x3ed305cc	0.4121536
29	0xbe55fd9f	-0.2089753
30	0x3e3255e4	0.17415577
31	0xbeb83bab	-0.35983023
32	0xbeadb4f3	-0.33927116
33	0x3e0d809f	0.13818596
34	0x3fadc255	1.357493
35	0x3f77ab84	0.9674609
36	0x3d02cd09	0.031933818
37	0xbe77ee57	-0.24212013
38	0x3e97ec90	0.2967267
39	0x3e037b1b	0.1283993
40	0x3f453ee2	0.77049077
41	0x3ee1f5cc	0.4413284
42	0xbe9ae4f1	-0.30252793
43	0xbed50dc2	-0.4161206
44	0x3eb04ebc	0.3443507
45	0x3e8c3705	0.27385727
46	0xbd6a9c1f	-0.057277795
47	0x3ebe4bce	0.3716721
48	0x3e29abf2	0.16569498
49	0x3dbc5564	0.091959745
50	0x3ed833e8	0.422271
51	0xbd89bca5	-0.06725434
52	0xbe621ad0	-0.2208054
53	0x3df576a2	0.11985518
54	0xbefe960f	-0.4972386
55	0xbeec9f9a	-0.46215516
56	0x3e997755	0.29973856
57	0xbe337aa7	-0.17527257
58	0x3e8b09da	0.27155954
59	0x3e3492f1	0.17634179
60	0xbe2cd9d9	-0.16879977
61	0xbe9a6d16	-0.3016135
62	0x3d75d13c	0.060013995
63	0xbe1631f0	-0.14667487
64	0x3df7ddc4	0.12102845
65	0x3e78a897	0.24283062
66	0xbee4cd76	-0.44688004
67	0xbe0bfcc7	-0.13670646
68	0x3ae9f524	0.0017849547
69	0x3ea8b452	0.32950073
70	0xbd69bf24	-0.05706705
71	0x3e63e393	0.22254781
72	0x3e4a2784	0.19741637
73	0xbe2dcac8	-0.16971886
74	0x3ec77698	0.38957667
75	0xbdcff938	-0.101549566
76	0x3f0fc2a1	0.56156355
77	0xbe85dba7	-0.26144144
78	0xbd6dae17	-0.058027353
79	0xbec23549	-0.37931278
80	0x3e91fe34	0.28514254
81	0x3e8e80d3	0.2783266
82	0x3e460848	0.19339097
83	0x3c18a731	0.009317205
84	0x3df77460	0.12082744
85	0xbdc80120	-0.097658396
86	0x3ed44562	0.41459185
87	0xbd1b1980	-0.037866116
88	0xbe05e06a	-0.13073888
89	0x3efa01f3	0.48829612
90	0xbeb2ba4c	-0.34907758
91	0xbdb7c973	-0.0897397
92	0x3e56db6e	0.20982143
93	0xbeece317	-0.46267006
94	0xbf02b1dc	-0.5105264
95	0x3e981aba	0.2970789

ActorCritic.0.bias f4 [24]
0	0x3f1c99a2	0.61171925
1	0x3fa1c72b	1.2638906
2	0x3f6b1904	0.91835046
3	0xbe245282	-0.16047099
4	0x3f65ee7b	0.8981702
5	0x3f81ff8e	1.0156114
6	0xbdf9318e	-0.12167655
7	0x3f819220	1.0122719
8	0xbd13451b	-0.035954576
9	0x3f78a353	0.97124213
10	0xbe81e0df	-0.25366876
11	0x3f9aef94	1.2104363
12	0x3f877205	1.0581671
13	0x3f7cb760	0.9871731
14	0x3f6ce102	0.92530835
15	0x3fa7bc14	1.3104272
16	0x3f575339	0.8411136
17	0x3f5c81c9	0.86135536
18	0xbef3b730	-0.47600698
19	0x3f88bb08	1.0682077
20	0x3fa320a1	1.2744333
21	0xbe76ef5c	-0.24114746
22	0x3f452f32	0.7702514
23	0x3f7e8dd8	0.99435186

Actor.0.weight f4 [2, 24]
0	0xbe1b2ee1	-0.15154602
1	0x3dec8623	0.11549022
2	0x3d84b510	0.064798474
3	0x3f7a483d	0.97766477
4	0xbe96d968	-0.29462743
5	0x3ea3d505	0.31998459
6	0x3f12dc29	0.5736719
7	0x3e3a3bdd	0.18186899
8	0xbf05020b	-0.5195624
9	0xbe2a645f	-0.16639851
10	0x3e06b795	0.13155968
11	0xbe68aec9	-0.22722925
12	0xbe76d4a2	-0.2410455
13	0x3e0f758c	0.14009684
14	0xbe4bacb5	-0.19890101
15	0xbd0d54e3	-0.034504782
16	0x3ea8194a	0.32831794
17	0xbe8618bf	-0.26190755
18	0xbc05b5e0	-0.008161038
19	0x3e6d927d	0.23200412
20	0x3da064d7	0.07831734
21	0xbe34c1cf	-0.17652057
22	0x3da98ab9	0.08278412
23	0xbe53b1a7	-0.20673238
24	0xbe1d7c95	-0.15379556
25	0xbdb8897a	-0.090105966
26	0xbd316318	-0.043307394
27	0xbf187b0b	-0.5956275
28	0x3f278235	0.65433055
29	0xbefde34f	-0.49587485
30	0xbf1f1f45	-0.6215709
31	0xbe5ec975	-0.21756537
32	0x3f17caa1	0.5929356
33	0x3e906fb9	0.28210238
34	0xbeb21a2b	-0.3478559
35	0x3def5e14	0.11687866
36	0x3c916495	0.017748157
37	0xbea88cc8	-0.32919908
38	0x3ee69b3d	0.45040312
39	0x3e0f1cdb	0.13975851
40	0xbcf571e7	-0.02996154
41	0x3ea146d1	0.3149934
42	0xbda51098	-0.08059806
43	0xbedfb277	-0.43690845
44	0xbd1f0fac	-0.038833305
45	0x3e3b60ec	0.18298692
46	0x3d9061b5	0.07049886
47	0x3e24ea05	0.16104896

Actor.0.bias f4 [2]
0	0xbd9ce318	-0.07660502
1	0x3df9b65c	0.121929854

Critic.0.weight f4 [1, 24]
0	0x4005b542	2.089188
1	0x406d9c67	3.712671
2	0x402ad90a	2.669497
3	0xc0291a3d	-2.6422265
4	0x400133ec	2.018794
5	0x408470d6	4.138774
6	0xc0a3ee4d	-5.1228395
7	0x4080c4bb	4.024015
8	0xc08cc2ea	-4.398793
9	0x40614a67	3.5201662
10	0xc002c034	-2.0429811
11	0x408420c6	4.1290007
12	0x407aff5c	3.921836
13	0x403a7228	2.9132175
14	0x40849f80	4.14447
15	0x405964e3	3.3967826
16	0x4026e998	2.6080074
17	0x4081d381	4.0570683
18	0xbcadacb0	-0.021200508
19	0x408f5108	4.4786415
20	0x406ca96f	3.6978414
21	0xbae43280	-0.001741007
22	0x4016f2e6	2.3585753
23	0x4059d584	3.403657
