nstepTD_A2C_CartPole/models/episodes_1100.pt (torch_old, 1914 bytes, 5 tensors)

ActorCritic.0.weight f4 [24, 4]
0	0x3f0f836c	0.5605991
1	0xbf2dfe3d	-0.6796606
2	0x3dbb423e	0.09143494
3	0x3e2b5894	0.16733009
4	0x3e7731a5	0.24140032
5	0x3daa5324	0.08316639
6	0xbe080275	-0.13282187
7	0xbe575ccb	-0.21031491
8	0x3e3b4090	0.18286347
9	0x3e67fffe	0.22656247
10	0x3e8d1228	0.27552915
11	0xbed70344	-0.4199468
12	0x3dbd4f5e	0.09243654
13	0xbef821cc	-0.48463285
14	0xbfbd2d13	-1.477938
15	0xbf58dcae	-0.8471173
16	0x3ebf974c	0.37420118
17	0x3db9de4a	0.090756014
18	0x3eb5345a	0.35391504
19	0x3ed6e233	0.4196945
20	0x3f0f05f7	0.55868477
21	0xbe707374	-0.23481542
22	0xbe8829f4	-0.26594508
23	0xbeb9c959	-0.3628643
24	0xbf23f832	-0.6405059
25	0xbf47f088	-0.78101397
26	0xbfe23aef	-1.7674235
27	0xbf798798	-0.97472525
28	0x3efecb28	0.4976437
29	0xbe6f2d96	-0.23357233
30	0x3ea26325	0.31716266
31	0xbecfbaf9	-0.40572336
32	0xbed7cb32	-0.42147213
33	0x3e44a8d0	0.19205022
34	0x3fa4ad48	1.2865381
35	0x3f79cad9	0.97575146
36	0x3de999e2	0.11406304
37	0xbe86fc57	-0.26364395
38	0x3ee565dc	0.44804275
39	0x3db2ce85	0.08730797
40	0x3f6691e0	0.9006634
41	0x3f0fdb9d	0.5619448
42	0xbe5f072a	-0.21780077
43	0xbe702f6a	-0.23455587
44	0x3ed64167	0.41846773
45	0x3e78960e	0.24275991
46	0x3dc050ad	0.09390388
47	0x3ea822b3	0.32838973
48	0x3e7eca1e	0.24881789
49	0x3d8e3c62	0.06945111
50	0x3f1277c4	0.57214
51	0xbddf94e2	-0.10917069
52	0xbe0b22e3	-0.13587527
53	0x3dc5baa2	0.09654738
54	0xbeb981a2	-0.36231714
55	0xbf022f9d	-0.508539
56	0x3ec31639	0.38102892
57	0xbe491b23	-0.19639258
58	0x3ed9ed70	0.42563963
59	0x3e075a54	0.13218051
60	0xbdb02993	-0.0860168
61	0xbea58d34	-0.32334292
62	0x3e532de0	0.20622969
63	0xbe41e4c9	-0.18934931
64	0x3e4d9990	0.2007811
65	0x3e54c025	0.20776422
66	0xbe9c38fd	-0.3051223
67	0xbe3249f9	-0.17411031
68	0x3da9136f	0.0825566
69	0x3e9d88a2	0.30768305
70	0x3dc20433	0.09473457
71	0x3e3bb9d1	0.18332602
72	0x3e4a2784	0.19741637
73	0xbe2dcac8	-0.16971886
74	0x3ec77698	0.38957667
75	0xbdcff938	-0.101549566
76	0x3f1d8a4a	0.6153914
77	0xbe9ca949	-0.30597904
78	0x3daa84a8	0.083260834
79	0xbed6fd9d	-0.41990367
80	0x3ebcd009	0.36877468
81	0x3e81bb5a	0.2533825
82	0x3ead963b	0.3390368
83	0xbd091528	-0.03346744
84	0x3df77460	0.12082744
85	0xbdc80120	-0.097658396
86	0x3ed44562	0.41459185
87	0xbd1b1980	-0.037866116
88	0xbd529e77	-0.051420655
89	0x3eec2457	0.46121475
90	0xbe51a5f1	-0.20473458
91	0xbe040c3c	-0.12895292
92	0x3e95ec49	0.29281834
93	0xbef6ea7a	-0.48225766
94	0xbeb83379	-0.3597677
95	0x3e7f935f	0.24958561

ActorCritic.0.bias f4 [24]
0	0x3f2f001f	0.6835956
1	0x3fa3277c	1.2746425
2	0x3f6f9b4a	0.9359633
3	0xbdf6dae5	-0.120534696
4	0x3f730684	0.9493182
5	0x3f859899	1.0437194
6	0xbda4392b	-0.080187164
7	0x3f83160f	1.0241107
8	0x3c74e3e0	0.014946908
9	0x3f7b6d85	0.9821399
10	0xbe35e46b	-0.17762916
11	0x3f9d19f9	1.2273551
12	0x3f88e4a9	1.0694782
13	0x3f7f28a6	0.996714
14	0x3f702208	0.9380193
15	0x3fa91130	1.320837
16	0x3f5b2438	0.8560214
17	0x3f5f6faf	0.8727979
18	0xbef3b730	-0.47600698
19	0x3f8ce274	1.1006608
20	0x3fa4a350	1.2862339
21	0xbe76ef5c	-0.24114746
22	0x3f482cbb	0.78193253
23	0x3f80d7c1	1.0065843

Actor.0.weight f4 [2, 24]
0	0xbda7e20c	-0.08197412
1	0x3de70ff6	0.11282341
2	0x3d571ec3	0.05251957
3	0x3f9a28e3	1.2043728
4	0xbea3b627	-0.3197491
5	0x3ec46c49	0.38363865
6	0x3f0a5288	0.5403218
7	0x3e5d4c93	0.21611242
8	0xbf375ec9	-0.71629006
9	0xbe497d3f	-0.19676684
10	0x3cc57018	0.024101302
11	0xbe78a6bd	-0.24282356
12	0xbe898c81	-0.26865008
13	0x3e012d73	0.12614994
14	0xbe5143d8	-0.20436037
15	0xbd78139e	-0.060565583
16	0x3eabefcd	0.3358139
17	0xbe9da449	-0.30789402
18	0xbc05b5e0	-0.008161038
19	0x3e93cefb	0.2886885
20	0x3d79e0d0	0.061005414
21	0xbe34c1cf	-0.17652057
22	0x3d339980	0.04384756
23	0xbe3e419c	-0.18579715
24	0xbe64ba71	-0.22336747
25	0xbdb31371	-0.087439425
26	0xbcfe2f41	-0.031028392
27	0xbf52848c	-0.822335
28	0x3f2df082	0.6794511
29	0xbf0f3d51	-0.55952936
30	0xbf1695a4	-0.58822083
31	0xbe80ed15	-0.2518088
32	0x3f4a275f	0.78966326
33	0x3e9ffc21	0.31247047
34	0xbe762a8c	-0.24039668
35	0x3e07a70e	0.1324732
36	0x3d39c39e	0.04535257
37	0xbea168b3	-0.31525192
38	0x3ee966db	0.45586285
39	0x3e29cc89	0.1658193
40	0xbd196df2	-0.037458368
41	0x3eb8d256	0.36097974
42	0xbda51098	-0.08059806
43	0xbefcb832	-0.4935928
44	0xbcb04d2f	-0.021521179
45	0x3e3b60ec	0.18298692
46	0x3de01fbc	0.10943553
47	0x3e0f79fc	0.14011377

Actor.0.bias f4 [2]
0	0xbdd7788f	-0.105210416
1	0x3e1a25e9	0.15053524

Critic.0.weight f4 [1, 24]
0	0x4021765b	2.5228488
1	0x4074de7e	3.8260798
2	0x4033c489	2.8088706
3	0xc041ffa9	-3.0312293
4	0x4010026d	2.250148
5	0x408eee86	4.4666166
6	0xc0ccbc92	-6.398019
7	0x408c84fd	4.391234
8	0xc0986f96	-4.7636213
9	0x40690a2a	3.6412454
10	0xc02b4f9c	-2.676734
11	0x408a1eef	4.316276
12	0x4083c3b6	4.1176405
13	0x4036748f	2.8508642
14	0x408e1e9e	4.4412374
15	0x405b2943	3.4243934
16	0x402c0508	2.687807
17	0x4082b9bf	4.085174
18	0xbcadacb0	-0.021200508
19	0x409bd31f	4.8695216
20	0x4078e8c6	3.8892074
21	0xbae43280	-0.001741007
22	0x40118b25	2.2741177
23	0x406340f5	3.5508397
