nstepTD_A2C_CartPole/models/episodes_600.pt (torch_old, 1914 bytes, 5 tensors)

ActorCritic.0.weight f4 [24, 4]
0.39191508 -0.70045257 0.1486929 0.37892783 -0.03848201 0.12626241 -0.13039863 -0.11316046
-0.00288105 0.40912056 0.23588112 -0.4259411 0.22255844 -0.18323068 -1.0057769 -0.8611585
0.42675167 0.37928578 0.18926078 0.4232305 0.34785467 -0.13063481 -0.28012145 -0.30684525
-0.15233815 -0.45796126 -1.3487749 -1.0455334 0.21303517 -0.18869857 0.32616025 -0.3043638
-0.036891297 0.14424127 0.91814864 0.8793167 -0.17357327 -0.23674034 0.42002466 0.17518583
0.5535359 0.3207002 -0.34355515 -0.61537695 0.16881199 0.31352758 0.06530567 0.41130647
-0.023532918 0.11185147 0.55151594 -0.02334951 -0.4441944 0.12495447 -0.34083614 -0.409602
0.11393024 -0.15508662 0.38752717 0.2136428 -0.4323195 -0.33480266 0.18220487 -0.09852301
0.035371758 0.42186964 -0.3277092 -0.17880848 -0.18206397 0.3491919 0.061206378 0.26052117
0.19741637 -0.16971886 0.38957667 -0.101549566 0.40848526 -0.22398916 0.07401071 -0.3462092
0.09334155 0.30327177 0.3349516 0.05393471 0.12082744 -0.097658396 0.41459185 -0.037866116
-0.2807258 0.5710507 -0.23665313 -0.079465225 -0.017356139 -0.49842787 -0.40112513 0.3709248
00000000: 18a9 c83e dc50 33bf f442 183e d402 c23e
00000010: 509f 1dbd ef4a 013e 3887 05be acc0 e7bd
00000020: 00d0 3cbb 4078 d13e d28a 713e f414 dabe
00000030: 5ce6 633e d3a0 3bbe 4cbd 80bf e274 5cbf
00000040: 327f da3e bf31 c23e 94cd 413e abb1 d83e
00000050: 021a b23e 22c5 05be 146c 8fbe d21a 9dbe
00000060: 88fe 1bbe e679 eabe a8a4 acbf 0ad4 85bf
00000070: e425 5a3e 333a 41be 7afe a63e 92d5 9bbe
00000080: 541b 17bd fcb3 133e ca0b 6b3f e61a 613f
00000090: 31bd 31be 0f6c 72be 790d d73e ea63 333e
000000a0: 87b4 0d3f d132 a43e 76e6 afbe 5889 1dbf
000000b0: 0ddd 2c3e b086 a03e fbbe 853d c396 d23e
000000c0: 1bc8 c0bc 6212 e53d 2630 0d3f 7947 bfbc
000000d0: 736d e3be 21e8 ff3d 1382 aebe 5ab7 d1be
000000e0: 4254 e93d 07cf 1ebe f669 c63e 2ec5 5a3e
000000f0: fb58 ddbe 416b abbe ea93 3a3e 6fc6 c9bd
00000100: fae1 103d 4cff d73e 80c9 a7be 9219 37be
00000110: fa6e 3abe 48c9 b23e 8ab3 7a3d 0863 853e
00000120: 8427 4a3e c8ca 2dbe 9876 c73e 38f9 cfbd
00000130: fb24 d13e 6a5d 65be ed92 973d 5542 b1be
00000140: db29 bf3d 7046 9b3e c77e ab3e a4ea 5c3d
00000150: 6074 f73d 2001 c8bd 6245 d43e 8019 1bbd
00000160: 4bbb 8fbe 6130 123f 3355 72be aabe a2bd
00000170: 762e 8ebc f031 ffbe 4660 cdbe dbe9 bd3e

ActorCritic.0.bias f4 [24]
0.33729607 1.1319041 0.7309745 -0.09608643 0.6314308 0.84152955 -0.10670208 0.87745255
-0.15422621 0.8321859 -0.25395426 1.0700763 0.9265706 0.846904 0.7917912 1.1536603
0.63686615 0.73201054 -0.47600698 0.8967127 1.1410625 -0.24114746 0.61501974 0.8263747
00000000: 12b2 ac3e 3ce2 903f 2521 3b3f f6c8 c4bd
00000010: 73a5 213f 7b6e 573f 9f86 dabd bba0 603f
00000020: 7aed 1dbe 230a 553f 4b06 82be 43f8 883f
00000030: bb33 6d3f b3ce 583f d4b2 4a3f 24ab 933f
00000040: a909 233f 0b65 3b3f 30b7 f3be f78e 653f
00000050: 560e 923f 5cef 76be ef71 1d3f 4b8d 533f

Actor.0.weight f4 [2, 24]
-0.20819522 0.11452953 0.048779197 0.6041515 -0.2715237 0.14157324 0.41039008 0.0986232
-0.13474876 -0.058188606 0.16358642 -0.19823869 -0.1786357 0.17578767 -0.1580578 0.05085549
0.28056633 -0.13701871 -0.008161038 0.07023484 0.10020911 -0.17652057 0.16151014 -0.1910813
-0.09714616 -0.08914524 -0.027288022 -0.22211489 0.63122904 -0.3174641 -0.4582897 -0.13431968
0.20812283 0.17389193 -0.37988287 0.08788819 -0.0446613 -0.36488873 0.4095594 0.05439848
0.01778969 0.19010457 -0.08059806 -0.27513888 -0.060725186 0.18298692 -0.008226865 0.14539792
00000000: 2131 55be 758e ea3d b2cc 473d aca9 1a3f
00000010: 2805 8bbe 93f8 103e a61e d23e f6fa c93d
00000020: 94fb 09be 2d57 6ebd 3383 273e 15ff 4abe
00000030: 47ec 36be af01 343e e7d9 21be d94d 503d
00000040: 64a6 8f3e a24e 0cbe e0b5 05bc 49d7 8f3d
00000050: 6f3a cd3d cfc1 34be ea62 253e d1aa 43be
00000060: 91f4 c6bd c891 b6bd 218b dfbc 1672 63be
00000070: 3a98 213f a88a a2be f3a4 eabe 198b 09be
00000080: 271e 553e ba10 323e 0280 c2be b9fe b33d
00000090: c4ee 36bd b2d2 babe c5b1 d13e f1d0 5e3d
000000a0: afbb 913c c6aa 423e 9810 a5bd 01df 8cbe
000000b0: f9ba 78bd ec60 3b3e f9c9 06bc 31e3 143e

Actor.0.bias f4 [2]
-0.033706084 0.079031006
00000000: 640f 0abd 02db a13d

Critic.0.weight f4 [1, 24]
1.1514742 2.9978082 2.0959933 -1.817993 1.3359759 2.842817 -3.7674844 2.9209402
-2.782659 3.0755558 -1.1481704 3.3108323 3.2574534 2.6340194 3.2799861 3.0756013
1.9688542 3.6576421 -0.021200508 3.154281 2.9281125 -0.001741007 2.1353595 2.729767
00000000: 8263 933f 17dc 3f40 c124 0640 ffb3 e8bf
00000010: 4201 ab3f b7f0 3540 771e 71c0 aff0 3a40
00000020: 1617 32c0 e8d5 4440 3ff7 92bf ade4 5340
00000030: 1e7a 5040 c693 2840 4beb 5140 a7d6 4440
00000040: 6a03 fc3f cf16 6a40 b0ac adbc bddf 4940
00000050: 3266 3b40 8032 e4ba bba9 0840 81b4 2e40
