nstepTD_A2C_CartPole/models/episodes_1400.pt (torch_old, 1914 bytes, 5 tensors)

ActorCritic.0.weight f4 [24, 4]
000000 8f 78 25 3f 30 fb 31 bf cc fa 31 3e 46 49 df 3d
       0.6463708 -0.69523907 0.17380828 0.10902648
000010 62 af bb 3e be 76 8c 3d 7f 93 3b bd 3f 3f 54 be
       0.36657244 0.06858586 -0.04579496 -0.20727251
000020 fb 50 9d 3e cd 96 56 3e 09 b6 bb 3e e5 c6 d2 be
       0.30725846 0.20955963 0.3666232 -0.4116737
000030 9c 21 85 be 33 9d 2c bf 7e 5d d8 bf 5e 92 59 bf
       -0.26002204 -0.67427367 -1.6903532 -0.84988964
000040 bd b2 f9 3e 18 67 91 3d 2b a7 f2 3e 57 ea de 3e
       0.4876918 0.07099742 0.47393164 0.43538162
000050 c3 e7 2b 3f 37 60 83 be 2b b2 41 be f3 fe b9 be
       0.67150515 -0.25659344 -0.18915622 -0.36327323
000060 a3 fe 65 bf 0b 8f 6a bf 63 74 fc bf 12 d0 79 bf
       -0.8984167 -0.91624516 -1.9723018 -0.97583115
000070 67 16 1f 3f c5 e9 7f be 74 5b cd 3e 23 98 ce be
       0.6214356 -0.2499152 0.40108836 -0.40350446
000080 18 0e 18 bf 9a 51 57 3e 03 ff a3 3f 69 a3 65 3f
       -0.59396505 0.21027222 1.2812198 0.8970247
000090 09 dd 74 3e 6f 80 8e be 00 e9 0b 3f 01 e1 c6 3d
       0.23912443 -0.27832362 0.54652405 0.09710885
0000a0 a9 86 85 3f 14 22 28 3f 76 b5 2e be cd b8 b8 bd
       1.043172 0.65677 -0.1706141 -0.09019623
0000b0 01 5b 0a 3f 7e 6c 67 3e de 2c 42 3e f2 cd ab 3e
       0.5404511 0.2259998 0.18962428 0.3355556
0000c0 dd 8c bf 3e b9 a0 5f 3d bd cb 2a 3f 49 d9 ce bd
       0.37412158 0.054596636 0.6671713 -0.101000376
0000d0 92 51 3b bc 57 b9 a8 3d e1 a2 90 be 33 70 02 bf
       -0.011433022 0.08238476 -0.28249267 -0.5095245
0000e0 6a 52 01 3f de ef 57 be 62 77 06 3f a5 27 10 3e
       0.5051638 -0.21087596 0.52525914 0.14077623
0000f0 c8 b8 1d 3d 5a f4 ac be 17 49 99 3e e0 25 3b be
       0.0385063 -0.33780175 0.29938576 -0.18276167
000100 57 ff a6 3e 9d 33 45 3e 2e ed 62 be 9c 2d 30 be
       0.32616684 0.1925797 -0.2216079 -0.17204899
000110 a7 cc 53 3e de b5 95 3e 60 0b 47 3e 64 c3 47 3e
       0.20683537 0.29240316 0.19437933 0.1950813
000120 84 27 4a 3e c8 ca 2d be 98 76 c7 3e 38 f9 cf bd
       0.19741637 -0.16971886 0.38957667 -0.101549566
000130 06 a1 39 3f 3d 4c a8 be d1 a7 26 3e d3 d8 d6 be
       0.7251133 -0.32870665 0.16274954 -0.419623
000140 14 e6 fc 3e 0b ed 73 3e da 61 db 3e 7a fd e8 bc
       0.49394286 0.23820893 0.42848092 -0.02844118
000150 60 74 f7 3d 20 01 c8 bd 62 45 d4 3e 80 19 1b bd
       0.12082744 -0.097658396 0.41459185 -0.037866116
000160 15 38 97 3d fa 89 e5 3e 05 37 e3 bd 69 22 fa bd
       0.07383744 0.4483183 -0.110944785 -0.122135945
000170 b7 fd d5 3e df 2e ff be 05 e9 86 be 51 8d 84 3e
       0.41795132 -0.49840447 -0.26349655 0.25889066

ActorCritic.0.bias f4 [24]
000000 f7 4d 3b 3f fb bd a4 3f 75 2d 73 3f eb a6 20 bc
       0.7316584 1.2870477 0.94991237 -0.009805421
000010 f3 2d 78 3f be 1a 88 3f 36 f8 1f bd d2 ea 84 3f
       0.9694511 1.0633161 -0.03905507 1.0384161
000020 31 2b 8c 3d 06 82 7e 3f d0 b9 23 be 8d e8 9e 3f
       0.068441756 0.9941715 -0.1598885 1.2414719
000030 74 81 8a 3f a9 13 81 3f e1 9a 73 3f 3c 90 aa 3f
       1.0820756 1.0084125 0.951582 1.3325267
000040 8a 7b 5e 3f e4 9a 62 3f 30 b7 f3 be e0 93 8f 3f
       0.86907256 0.88517594 -0.47600698 1.1217003
000050 7e 45 a6 3f 5c ef 76 be 54 0d 4b 3f 0d 5b 82 3f
       1.2989957 -0.24114746 0.7931721 1.0184036

Actor.0.weight f4 [2, 24]
000000 56 7f af bd 8c cc 00 3e 8f f0 96 3d 95 68 b2 3f
       -0.08569209 0.12578028 0.07370102 1.3938166
000010 72 d4 bb be ca f7 db 3e 00 3c 0a 3f 6b f1 77 3e
       -0.3668552 0.42962486 0.539978 0.24213187
000020 3a 35 64 bf c2 81 68 be 99 38 d8 bd 85 55 87 be
       -0.8914372 -0.22705749 -0.1055767 -0.26432434
000030 25 02 91 be ad e3 26 3e 7c c0 6d be 42 82 84 bd
       -0.2832195 0.16297789 -0.23217958 -0.06470157
000040 19 d1 ba 3e b3 cb a9 be e0 b5 05 bc 09 4e a6 3e
       0.36487654 -0.33163223 -0.008161038 0.3248141
000050 78 c5 5a 3d cf c1 34 be 57 60 6b 3d 66 80 45 be
       0.053410977 -0.17652057 0.057464924 -0.19287261
000060 c8 eb 60 be 60 9c cd bd de d9 55 bd eb 81 81 bf
       -0.21964943 -0.10039592 -0.052209727 -1.0117773
000070 b4 ff 39 3f 1b 03 1b bf 19 7f 16 bf d2 3f 8e be
       0.72655797 -0.60551614 -0.58787686 -0.27783066
000080 d0 fd 76 3f 66 7e af 3e 87 c0 e2 bd 95 ab 1d 3e
       0.9648104 0.34276122 -0.11071878 0.15397485
000090 80 71 75 3d 8e 43 b4 be 0b a5 f7 3e de 08 2e 3e
       0.059922695 -0.3520779 0.48368105 0.1699557
0000a0 41 3c 88 bd c2 f9 c4 3e 98 10 a5 bd 7e 9b 07 bf
       -0.066521175 0.384718 -0.08059806 -0.5297164
0000b0 78 2c 64 bc ec 60 3b 3e 42 3c c4 3d b2 b8 16 3e
       -0.013926618 0.18298692 0.09581806 0.14718893

Actor.0.bias f4 [2]
000000 50 7f f0 bd 31 a9 26 3e
       -0.11743033 0.16275479

Critic.0.weight f4 [1, 24]
000000 71 75 4b 40 ad a9 80 40 a9 d9 40 40 da cb 8e c0
       3.179043 4.0207124 3.013285 -4.462384
000010 2f 5d 28 40 bc 05 9e 40 43 7f fc c0 28 a1 9b 40
       2.6306875 4.9382 -7.890535 4.8634224
000020 1e c7 af c0 cf 0e 75 40 8f eb 55 c0 59 3a 94 40
       -5.4930563 3.8290288 -3.3425024 4.6321225
000030 50 11 8c 40 36 a5 35 40 4a 90 9b 40 56 e6 5e 40
       4.3771133 2.8382087 4.8613634 3.4828086
000040 27 82 39 40 16 f8 86 40 b0 ac ad bc 50 25 ac 40
       2.8985689 4.217784 -0.021200508 5.3795547
000050 42 4e 85 40 80 32 e4 ba a2 bd 11 40 e0 e5 75 40
       4.165803 -0.001741007 2.2771993 3.8421555
