nstepTD_A2C_CartPole/models/episodes_1200.pt (torch_old, 1914 bytes, 5 tensors)

ActorCritic.0.weight f4 [24, 4]
0.55031776 -0.7011479 0.07308873 0.15228815 0.24722804 0.058691606 -0.14264894 -0.1989339
0.18662992 0.1998131 0.26634064 -0.40491647 -0.020874979 -0.58033764 -1.5427431 -0.8749944
0.36840943 0.06568768 0.35655466 0.4299608 0.55025476 -0.268188 -0.28141564 -0.35002834
-0.7012342 -0.823093 -1.8300762 -1.0088706 0.50057304 -0.26065752 0.3050265 -0.39318997
-0.42764238 0.22872062 1.3351786 0.9585744 0.12029336 -0.28676188 0.44316506 0.10078626
0.98598117 0.6120858 -0.15645875 -0.13144974 0.42123467 0.21732615 0.08736762 0.34013155
0.25492322 0.045789756 0.56557596 -0.096113056 -0.13004172 0.0718006 -0.3742097 -0.49843967
0.38546047 -0.2193476 0.4207593 0.1442677 -0.07990601 -0.3468299 0.19961418 -0.17687322
0.20599853 0.18208003 -0.31684133 -0.16242532 0.08878606 0.28458858 0.09036817 0.19741362
0.19741637 -0.16971886 0.38957667 -0.101549566 0.6038749 -0.3399109 0.06880353 -0.40761992
0.37439606 0.22868891 0.32980773 -0.021278653 0.12082744 -0.097658396 0.41459185 -0.037866116
-0.04453306 0.43912855 -0.21173285 -0.117439896 0.2982922 -0.50664043 -0.3659769 0.26304716
00000000: a0e1 0c3f 6e7e 33bf 8baf 953d 6df1 1b3e
00000010: 5929 7d3e 9c66 703d 9012 12be 54b5 4bbe
00000020: ea1b 3f3e ce9b 4c3e cd5d 883e 3651 cfbe
00000030: 0102 abbc 0291 14bf 9b78 c5bf a2ff 5fbf
00000040: 29a0 bc3e 4387 863d 558e b63e d223 dc3e
00000050: 7fdd 0c3f f04f 89be b615 90be ea36 b3be
00000060: 1684 33bf 39b6 52bf f03f eabf ac22 81bf
00000070: 8e25 003f e774 85be 6f2c 9c3e 3250 c9be
00000080: f1f3 dabe bd35 6a3e 22e7 aa3f 2265 753f
00000090: 5d5c f63d 74d2 92be 88e6 e23e 0769 ce3d
000000a0: 4369 7c3f a8b1 1c3f b936 20be c39a 06be
000000b0: 12ac d73e bf8a 5e3e cbed b23d b925 ae3e
000000c0: 4c85 823e 0a8e 3b3d 96c9 103f ecd6 c4bd
000000d0: a829 05be 310c 933d 6a98 bfbe 7c33 ffbe
000000e0: 135b c53e a89c 60be c36d d73e e9ba 133e
000000f0: c3a5 a3bd b093 b1be a967 4c3e 411e 35be
00000100: 47f1 523e 3073 3a3e 0739 a2be d352 26be
00000110: 77d5 b53d 98b5 913e f212 b93d cc26 4a3e
00000120: 8427 4a3e c8ca 2dbe 9876 c73e 38f9 cfbd
00000130: 8c97 1a3f cd08 aebe dde8 8c3d 8fb3 d0be
00000140: d7b0 bf3e 6d2d 6a3e 8fdc a83e 9250 aebc
00000150: 6074 f73d 2001 c8bd 6245 d43e 8019 1bbd
00000160: 4c68 36bd 75d5 e03e 7fd0 58be 5484 f0bd
00000170: c1b9 983e 30b3 01bf 5361 bbbe 1eae 863e

ActorCritic.0.bias f4 [24]
0.69030315 1.2675304 0.93025863 -0.051616408 0.9477153 1.043737 -0.0495632 1.0186063
0.03335563 0.9744881 -0.13025436 1.2213755 1.0621191 0.98973775 0.9313248 1.3132886
0.84958327 0.86513317 -0.47600698 1.1020173 1.2792124 -0.24114746 0.77412707 0.9989615
00000000: b5b7 303f 703e a23f 6e25 6e3f ba6b 53bd
00000010: 789d 723f 2d99 853f c802 4bbd b161 823f
00000020: ea9f 083d 0d78 793f 6661 05be 0856 9c3f
00000030: 85f3 873f 745f 7d3f 4d6b 6e3f d719 a83f
00000040: 4a7e 593f 5e79 5d3f 30b7 f3be e70e 8d3f
00000050: 3bbd a33f 5cef 76be 312d 463f f1bb 7f3f

Actor.0.weight f4 [2, 24]
-0.04446342 0.1279471 0.061879545 1.3212882 -0.3301933 0.41564786 0.5641347 0.23973195
-0.7727056 -0.1850767 -0.06740576 -0.2468887 -0.26603046 0.15278193 -0.19796592 -0.038512673
0.34957707 -0.3143304 -0.008161038 0.3179036 0.061327692 -0.17652057 0.0454265 -0.15822856
-0.2608781 -0.102563344 -0.04038839 -0.93924975 0.6898942 -0.5915398 -0.6120336 -0.27542874
0.8460788 0.30078048 -0.14888968 0.13653822 0.042733144 -0.34188238 0.44946754 0.14376642
-0.051221658 0.36741608 -0.08059806 -0.5228076 -0.021843338 0.18298692 0.107856564 0.11254512
00000000: 461f 36bd 9104 033e 6875 7d3d f91f a93f
00000010: 190f a9be cccf d43e 226b 103f 4b7c 753e
00000020: 09d0 45bf bf84 3dbe 080c 8abd 64d0 7cbe
00000030: 2535 88be de72 1c3e 94b7 4abe 77bf 1dbd
00000040: c4fb b23e eaef a0be e0b5 05bc 43c4 a23e
00000050: bf32 7b3d cfc1 34be 2311 3a3d ab06 22be
00000060: d091 85be bb0c d2bd 4c6e 25bd ac72 70bf
00000070: e89c 303f 276f 17bf 3cae 1cbf ff04 8dbe
00000080: 9f98 583f e6ff 993e 8976 18be add0 0b3e
00000090: f308 2f3d 350b afbe 9c20 e63e 8137 133e
000000a0: cdcd 51bd f61d bc3e 9810 a5bd b8d6 05bf
000000b0: cdf0 b2bc ec60 3b3e e7e3 dc3d 0e7e e63d

Actor.0.bias f4 [2]
-0.09304433 0.1383691
00000000: 078e bebd a1b0 0d3e

Critic.0.weight f4 [1, 24]
2.601851 3.78373 2.746942 -3.5127883 2.2381215 4.4697824 -6.816369 4.3929553
-4.8877892 3.6283183 -3.0484047 4.2889676 4.0802584 2.7926135 4.4476686 3.4035878
2.631719 4.021113 -0.021200508 4.87929 3.8492224 -0.001741007 2.1780953 3.5723042
00000000: ba84 2640 a228 7240 e6cd 2f40 86d1 60c0
00000010: 623d 0f40 7508 8f40 b21f dac0 1793 8c40
00000020: c568 9cc0 5e36 6840 1019 43c0 393f 8940
00000030: 7a91 8240 2eba 3240 4d53 8e40 62d4 5940
00000040: 166e 2840 f5ac 8040 b0ac adbc 2523 9c40
00000050: a959 7640 8032 e4ba ea65 0b40 a2a0 6440
