nstepTD_A2C_CartPole/models/episodes_1500.pt (torch_old, 1914 bytes, 5 tensors)

ActorCritic.0.weight f4 [24, 4]
0.60535693 -0.7449331 0.10801938 -0.014842695 0.34313 0.004085388 -0.11360286 -0.26920205
0.28401628 0.14537999 0.29980114 -0.4724566 -0.39027867 -0.7325642 -1.7041645 -0.81609964
0.4706463 0.010875188 0.41718835 0.38529035 0.64534754 -0.32234752 -0.25981152 -0.4289513
-1.015226 -0.9785242 -1.9903636 -0.9368175 0.5973263 -0.31480888 0.332091 -0.46726087
-0.66424704 0.22804257 1.3254931 0.91397536 0.21858788 -0.34124523 0.48238453 0.039184988
1.176386 0.76377904 -0.061875135 0.02469212 0.51879674 0.1625982 0.124839626 0.2768847
0.35241026 -0.008919949 0.6020265 -0.15998161 -0.036272343 0.016896876 -0.35292163 -0.5739147
0.48440978 -0.27383572 0.46127814 0.082782604 0.016973786 -0.40152588 0.2332239 -0.2426626
0.30146903 0.12770687 -0.29033566 -0.23504005 0.18625298 0.22960214 0.13126557 0.1385837
0.19741637 -0.16971886 0.38957667 -0.101549566 0.6996083 -0.39415535 0.09296166 -0.48428908
0.47091267 0.17403789 0.3617084 -0.08929212 0.12082744 -0.097658396 0.41459185 -0.037866116
0.051262178 0.38338667 -0.17533858 -0.17849927 0.3953851 -0.5605519 -0.32819667 0.19696672
00000000: acf8 1a3f f0b3 3ebf 4439 dd3d c62e 73bc
00000010: bcae af3e b8de 853b 9ea8 e8bd dad4 89be
00000020: 956a 913e 7ede 143e 897f 993e d5e5 f1be
00000030: 9bd2 c7be 5489 3bbf 1022 dabf e8eb 50bf
00000040: 8df8 f03e d82d 323c b699 d53e c744 c53e
00000050: 7f35 253f bc0a a5be 0406 85be 819f dbbe
00000060: edf2 81bf 9080 7abf 3cc4 febf 46d3 6fbf
00000070: 60ea 183f a12e a1be d507 aa3e d13c efbe
00000080: 180c 2abf fe83 693e c2a9 a93f 4afa 693f
00000090: 80d5 5f3e b2b7 aebe 1bfb f63e 7080 203d
000000a0: d193 963f 0687 433f c870 7dbd 2147 ca3c
000000b0: ddcf 043f 2480 263e ebab ff3d d5c3 8d3e
000000c0: 1e6f b43e fa24 12bc 691e 1a3f 38d2 23be
000000d0: 4f92 14bd 516b 8a3c 25b2 b4be 13ec 12bf
000000e0: 8f04 f83e 3234 8cbe a62c ec3e ed89 a93d
000000f0: 9c0c 8b3c cd94 cdbe 3fd2 6e3e 8b7c 78be
00000100: 265a 9a3e 97c5 023e e0a6 94be 57ae 70be
00000110: 1ab9 3e3e d31c 6b3e 7b6a 063e e3e8 0d3e
00000120: 8427 4a3e c8ca 2dbe 9876 c73e 38f9 cfbd
00000130: 8819 333f bbce c9be af62 be3d bdf4 f7be
00000140: 771b f13e fd36 323e d831 b93e c9de b6bd
00000150: 6074 f73d 2001 c8bd 6245 d43e 8019 1bbd
00000160: 4af8 513d 424b c43e f58b 33be 83c8 36be
00000170: ea6f ca3e 5480 0fbf 6509 a8be a5b1 493e

ActorCritic.0.bias f4 [24]
0.7000912 1.238887 0.90184975 0.03848445 0.9213263 1.0151131 0.00037999346 0.9898507
0.12819318 0.94589734 -0.12970288 1.1932292 1.0338559 0.9605226 0.90311897 1.284311
0.8210595 0.83721596 -0.47600698 1.0734556 1.250797 -0.24114746 0.74640554 0.97028375
00000000: 2d39 333f d993 9e3f a0df 663f dfa1 1d3d
00000010: 0adc 6b3f 3aef 813f dc39 c739 db66 7d3f
00000020: 1345 033e 5426 723f d5d0 04be bcbb 983f
00000030: 6455 843f cfe4 753f ce32 673f 4e64 a43f
00000040: f530 523f c953 563f 30b7 f3be fe66 893f
00000050: 1e1a a03f 5cef 76be 6f14 3f3f 8464 783f

Actor.0.weight f4 [2, 24]
-0.099053204 0.12770085 0.07614216 1.4860307 -0.39584216 0.42826626 0.61659145 0.23772642
-0.9119789 -0.2303551 -0.14022745 -0.28363383 -0.29190063 0.19338225 -0.25229 -0.04511124
0.36507395 -0.34308967 -0.008161038 0.3208972 0.042411413 -0.17652057 0.06229094 -0.19478846
-0.20628822 -0.10231695 -0.05465088 -1.1039915 0.7555446 -0.6041577 -0.66449034 -0.2734253
0.9853526 0.34605855 -0.07606793 0.17328385 0.06860361 -0.3824825 0.5037923 0.15036513
-0.0667181 0.39617547 -0.08059806 -0.5257992 -0.0029271732 0.18298692 0.09099196 0.14910474
00000000: 68dc cabd 03c4 023e 6cf0 9b3d 4136 be3f
00000010: d3ab cabe b745 db3e f0d8 1d3f 8e6e 733e
00000020: 7377 69bf 35e2 6bbe c997 0fbe 7438 91be
00000030: 0074 95be ff05 463e 282c 81be 90c6 38bd
00000040: f9ea ba3e 73a9 afbe e0b5 05bc a34c a43e
00000050: 97b7 2d3d cfc1 34be c924 7f3d a076 47be
00000060: 383d 53be 8d8b d1bd 9ad9 5fbd 984f 8dbf
00000070: 5f6b 413f 14aa 1abf 0a1c 2abf 67fe 8bbe
00000080: 1140 7c3f 962e b13e 81c9 9bbd 5271 313e
00000090: 0d80 8c3d bfd4 c3be 88f8 003f 51f9 193e
000000a0: 80a3 88bd 83d7 ca3e 9810 a5bd c79a 06bf
000000b0: d1d5 3fbb ec60 3b3e fe59 ba3d eaae 183e

Actor.0.bias f4 [2]
-0.109694146 0.15501843
00000000: 53a7 e0bd 27bd 1e3e

Critic.0.weight f4 [1, 24]
3.0286558 3.7503097 2.7333844 -4.9889283 2.2944646 4.715026 -8.480615 4.630424
-5.960231 3.5959156 -4.0039325 4.2994285 4.0808945 2.6498172 4.581019 3.3129978
2.6097915 3.8778646 -0.021200508 5.1582475 3.8515165 -0.001741007 1.9605107 3.6536534
00000000: 7fd5 4140 1305 7040 c5ef 2e40 4da5 9fc0
00000010: 82d8 1240 7ee1 9640 99b0 07c1 6f2c 9440
00000020: 36ba bec0 7b23 6640 3720 80c0 eb94 8940
00000030: b096 8240 9b96 2940 b597 9240 2808 5440
00000040: d306 2740 ef2e 7840 b0ac adbc 5d10 a540
00000050: 3f7f 7640 8032 e4ba 04f2 fa3f 75d5 6940
