nstepTD_A2C/models/episodes_500.pt (torch_old, 1914 bytes, 5 tensors)

ActorCritic.0.weight f4 [24, 4]
000000 1c 33 b4 3e 75 81 32 bf d0 5f 30 3e ee ec c4 3e
       0.35195243 -0.69728786 0.1722405 0.38462013
000010 ee a1 74 bd 49 33 03 3e 7b be ee bd 86 7b c4 bd
       -0.05972474 0.12812532 -0.11657425 -0.09593873
000020 e7 b0 1d 3d 23 cc de 3e 53 c0 71 3e 37 22 d5 be
       0.038498785 0.4351512 0.23608522 -0.41627666
000030 2e e5 49 3e 08 b8 45 bd f6 19 56 bf 74 ba 4e bf
       0.19716331 -0.04827121 -0.83633363 -0.80753255
000040 9f ac eb 3e ee 36 cc 3e 24 3d 33 3e 0d 42 d4 3e
       0.46030137 0.39885658 0.17503792 0.41456643
000050 2b 88 b6 3e 3d 5b ef bd e2 fb 88 be 79 41 97 be
       0.35650763 -0.11687324 -0.2675467 -0.2954214
000060 35 9d 3c be fd e8 dc be 4c 1d 9d bf 7a d8 7a bf
       -0.18419345 -0.43146506 -1.2274566 -0.9798657
000070 af 48 44 3e 75 78 3f be 07 04 ae 3e 69 09 93 be
       0.19168352 -0.18698294 0.33987448 -0.28718117
000080 66 05 f5 3c 36 f9 79 3d f3 5e 3d 3f 63 27 4e 3f
       0.0299098 0.06102868 0.73973006 0.8052885
000090 73 28 58 be a5 12 81 be 42 bf db 3e 60 e6 45 3e
       -0.2110918 -0.25209537 0.42919356 0.19326162
0000a0 de c8 08 3f 11 5f c4 3e 27 9e 70 be a4 67 16 bf
       0.534315 0.3835378 -0.2349783 -0.58751893
0000b0 eb 24 5c 3e 51 29 b5 3e 2a 47 9d 3d 0e 33 da 3e
       0.21498458 0.35383084 0.07679589 0.42617077
0000c0 3c 52 34 bd 21 4b e3 3d e1 56 0f 3f 2c 23 1a bc
       -0.044023737 0.11098314 0.5599194 -0.0094078
0000d0 42 8a f0 be b6 dc 03 3e 60 3b a4 be d6 49 c7 be
       -0.46980482 0.12877163 -0.3207655 -0.3892352
0000e0 39 06 c1 3d 21 e2 23 be 91 dd c6 3e 1b 83 64 3e
       0.09425015 -0.1600423 0.38840917 0.22315638
0000f0 69 c6 f2 be 75 13 b3 be 48 49 48 3e 61 3a 9f bd
       -0.47417 -0.34975782 0.19559205 -0.07774807
000100 09 24 a4 3d 26 3f e8 3e ca 50 a4 be a0 f9 2b be
       0.08014686 0.45360678 -0.32092887 -0.16794443
000110 2d 0d 4f be b7 da b1 3e 69 a9 8a 3d bb ea 8b 3e
       -0.2021987 0.3473718 0.06770594 0.27327523
000120 84 27 4a 3e c8 ca 2d be 98 76 c7 3e 38 f9 cf bd
       0.19741637 -0.16971886 0.38957667 -0.101549566
000130 27 28 cf 3e 89 3e 5f be bf ce b2 3d 90 19 aa be
       0.4046032 -0.21801199 0.0873084 -0.33222628
000140 2c d6 9a 3d 49 b3 9d 3e 04 e7 b2 3e 80 4a 92 3d
       0.07560381 0.30800846 0.34941876 0.07143116
000150 60 74 f7 3d 20 01 c8 bd 62 45 d4 3e 80 19 1b bd
       0.12082744 -0.097658396 0.41459185 -0.037866116
000160 fb 0c 90 be a9 82 13 3f b7 d0 68 be ec e4 77 bd
       -0.28134903 0.57621247 -0.22735868 -0.06052105
000170 c5 60 5d bd 0b f7 02 bf 47 e5 c8 be 08 35 c6 3e
       -0.054047365 -0.5115821 -0.39237425 0.38712335

ActorCritic.0.bias f4 [24]
000000 e2 ae 87 3e 4d 74 87 3f ff 8d 25 3f df 4d d0 bd
       0.26500612 1.0582367 0.64669794 -0.10171103
000010 c8 b4 0b 3f 75 74 42 3f 35 b6 8c bd 18 ad 4d 3f
       0.54572725 0.7595895 -0.06870691 0.80342245
000020 c9 08 3f be da f5 40 3f 2c da 70 be a2 67 7c 3f
       -0.18655695 0.7537514 -0.23520726 0.9859563
000030 12 71 5a 3f 24 a0 45 3f bf f5 37 3f b5 85 89 3f
       0.8532878 0.7719748 0.71859354 1.0743929
000040 12 3d 0d 3f 0b d0 28 3f 30 b7 f3 be 96 99 51 3f
       0.5517131 0.6594245 -0.47600698 0.8187498
000050 bb 89 88 3f 5c ef 76 be ce 4a 0a 3f cb 8e 3f 3f
       1.0667032 -0.24114746 0.5402039 0.7482726

Actor.0.weight f4 [2, 24]
000000 3a 5c 7e be d2 4d ef 3d 8a a7 83 3d f2 6a ec 3e
       -0.24839869 0.11684765 0.0642844 0.46175343
000010 cc 74 30 be 0a 29 a5 3d 2c 2d 84 3e 50 fc 88 3d
       -0.17232054 0.08064468 0.25815713 0.0668875
000020 e8 63 52 3c 92 f6 04 bd e5 bd 04 3e 69 e9 09 be
       0.012841202 -0.03246171 0.12963064 -0.13467945
000030 68 4e 0d be c3 2b 15 3e 8f d0 01 be b9 4a 21 3d
       -0.13799441 0.14567475 -0.12677215 0.0393779
000040 9c cc 97 3e 6e a9 56 bd e0 b5 05 bc 40 02 84 3c
       0.29648292 -0.052407674 -0.008161038 0.016114354
000050 c6 00 13 3e cf c1 34 be 8b a6 63 3e 92 7f 5b be
       0.14355764 -0.17652057 0.222315 -0.21435383
000060 eb 3c 69 bd 23 51 bb bd ee 47 2f bd 6d 42 a3 bd
       -0.05694286 -0.09146335 -0.042793207 -0.07971654
000070 d6 32 08 3f a1 58 83 be 79 b3 9c be 99 17 d2 bd
       0.5320257 -0.25653556 -0.30605677 -0.10258407
000080 4c f1 77 3d 95 b8 17 3e 5c 1d b1 be 60 4d c7 3c
       0.060532853 0.14816506 -0.34592712 0.024328887
000090 2f b3 ae bd ae 67 ab be 17 ad c1 3e 07 ea 86 3d
       -0.0853027 -0.3347754 0.3782737 0.06587606
0000a0 e7 79 f5 3a 01 0d d8 3d 98 10 a5 bd 99 52 62 be
       0.0018728346 0.10549355 -0.08059806 -0.22101821
0000b0 a1 24 d5 bd ec 60 3b 3e 4f 60 8d bd f2 b7 2c 3e
       -0.10407377 0.18298692 -0.06903135 0.16867045

Actor.0.bias f4 [2]
000000 c1 42 ee bc 0a 64 98 3d
       -0.029084565 0.07440956

Critic.0.weight f4 [1, 24]
000000 a8 74 6d 3f 06 0e 29 40 1a 22 e2 3f af 15 ac bf
       0.9275613 2.641481 1.7666657 -1.3444117
000010 ad cc 91 3f 39 c7 1d 40 36 f3 59 c0 4d eb 22 40
       1.1390587 2.4652846 -3.4054694 2.5456116
000020 ba 88 0b c0 58 67 31 40 6a c1 84 bf 57 38 40 40
       -2.1802201 2.7719326 -1.0371525 3.0034387
000030 15 71 3a 40 47 5d 12 40 88 e7 3c 40 3f dd 30 40
       2.913152 2.2869432 2.9516315 2.7635038
000040 64 09 d4 3f e5 61 56 40 b0 ac ad bc 0d 98 31 40
       1.6565366 3.349725 -0.021200508 2.7749054
000050 7a b6 25 40 80 32 e4 ba 89 5e e7 3f bc 60 1c 40
       2.5892625 -0.001741007 1.8075725 2.4434042
