nstepTD_A2C/models/episodes_700.pt (torch_old, 1914 bytes, 5 tensors)

ActorCritic.0.weight f4 [24, 4]
00000000: c0ff ff3e 2173 27bf aa01 213d 7e31 b53e
00000010: c9ca 0d3d 6db3 0b3e 305a 65be 00c4 15be
00000020: be0c 0c3c 1e06 b13e 4911 313e ecbc cebe
00000030: bee1 9d3e 1c6a 3ebe 65ed 8bbf 27bc 60bf
00000040: 1d8d bf3e 0701 923e c126 343e 5ffb f23e
00000050: 8ffc d33e df81 07be c0c9 c0be 9b22 abbe
00000060: dc4c 8cbe 8fe0 09bf dd33 abbf 55ce 81bf
00000070: abee 923e f5c2 36be dbd1 6b3e cf53 adbe
00000080: f0ff 3bbe 76a5 b53d d219 903f a3af 723f
00000090: 3a65 afbd 8a18 58be a795 ac3e f128 123e
000000a0: b437 273f c008 be3e 4270 c4be 32bc 18bf
000000b0: caee 6c3e fb92 a03e e3db 94bc 43ac c43e
000000c0: 9c22 413d 4172 fa3d 6057 ee3e 62ac 56bd
000000d0: b095 b1be f331 173e 3c20 e1be ee9d e2be
000000e0: ede5 3a3e 4b96 13be 46f8 9d3e 99e6 403e
000000f0: 4e18 94be 2f34 8abe 5472 d83d 0dab 04be
00000100: ebca 903c b370 a53e 062d cbbe f410 1abe
00000110: d146 e7bd 7327 b83e ba8f a3bc 1898 6f3e
00000120: 8427 4a3e c8ca 2dbe 9876 c73e 38f9 cfbd
00000130: 5022 f53e c276 5cbe aa29 b5bc 4964 c1be
00000140: e155 293e 8df4 9f3e ebde 783e a8df b93c
00000150: 6074 f73d 2001 c8bd 6245 d43e 8019 1bbd
00000160: d68d 6dbe 6166 0d3f b460 9ebe 5438 b7bd
00000170: b671 ca3d b48d e5be 563e f4be ff72 ab3e
0.4999981 -0.6541005 0.039308228 0.35389322 0.03461722 0.13642664 -0.22397685 -0.1462555
0.00854796 0.3457498 0.1729175 -0.4037851 0.3083629 -0.18595165 -1.0931822 -0.877871
0.37412348 0.2851641 0.17592908 0.47457406 0.41403624 -0.13233136 -0.37653923 -0.3342484
-0.2740239 -0.53858274 -1.3375202 -1.0141093 0.28697714 -0.17847808 0.23029272 -0.33853003
-0.18359351 0.0886945 1.125788 0.9479925 -0.08564229 -0.21103111 0.33707926 0.1427343
0.6531937 0.3711605 -0.38366896 -0.59662163 0.23137966 0.31362137 -0.018171256 0.38412675
0.047152147 0.122288235 0.46551037 -0.05241049 -0.34684515 0.14765148 -0.43969905 -0.44261116
0.18251772 -0.14412801 0.3085348 0.18837966 -0.28924793 -0.26992938 0.10568681 -0.12955876
0.017674884 0.32312545 -0.39682788 -0.1504553 -0.11292804 0.35967597 -0.019965995 0.23397863
0.19741637 -0.16971886 0.38957667 -0.101549566 0.4787774 -0.21529678 -0.022114594 -0.37771824
0.16536666 0.31241265 0.24303786 0.022689655 0.12082744 -0.097658396 0.41459185 -0.037866116
-0.23198637 0.5523434 -0.30933154 -0.089462906 0.0988497 -0.44834673 -0.4770381 0.33486173

ActorCritic.0.bias f4 [24]
00000000: c4e8 e03e a5af 993f 098f 563f 5bdb edbd
00000010: e0cd 403f 07e2 6a3f 29ad febd 9c70 723f
00000020: d8f0 cbbd 3c57 683f af0a 7dbe 203d 923f
00000030: 33a7 7e3f 3fb0 6c3f d33e 5c3f 8fa5 9f3f
00000040: a17d 423f e387 4c3f 30b7 f3be 7a2b 783f
00000050: 5dd8 9a3f 5cef 76be 61f4 323f 0c28 6a3f
0.43927586 1.2006727 0.83812004 -0.11614104 0.7531414 0.9175114 -0.124353714 0.9470308
-0.09958047 0.9075811 -0.24711107 1.1424904 0.99473876 0.9245643 0.8603336 1.24724
0.75972944 0.79894847 -0.47600698 0.9694134 1.2097279 -0.24114746 0.6990414 0.91467357

Actor.0.weight f4 [2, 24]
00000000: 81b4 44be 249e ec3d 8483 703d 2f32 3f3f
00000010: e224 96be cb01 5d3e a24b 083f 69cf 073e
00000020: c6d4 8dbe 8b65 d1bd f6bc 1f3e 66ab 63be
00000030: 90b9 54be c639 2e3e b37f 39be d51c ba3c
00000040: f602 9a3e 5fdb 4bbe e0b5 05bc a27c 0c3e
00000050: 29ed ac3d cfc1 34be 4902 ff3d aded 4abe
00000060: deed e7bd 7aa1 b8bd 757c 18bd 19ca babe
00000070: 0c28 273f 378f c8be be8e 14bf 055d 2cbe
00000080: ff65 b33e c92d 5f3e e09c bebe 6e57 e53d
00000090: fae6 7ebc c9ee b7be ad84 dd3e 2908 a93d
000000a0: 8267 20bb bd1b 813e 9810 a5bd 8e27 afbe
000000b0: 6a20 38bd ec60 3b3e c1a8 eb3c 0c26 1c3e
-0.19209482 0.115536004 0.058719173 0.7468595 -0.29325014 0.21582715 0.53240407 0.13262714
-0.27701396 -0.10224446 0.15599427 -0.22233352 -0.20773911 0.17014226 -0.1811512 0.022718826
0.30080384 -0.19907902 -0.008161038 0.13719419 0.08443672 -0.17652057 0.12451608 -0.19817229
-0.113246664 -0.09015174 -0.037228066 -0.36482313 0.6529548 -0.39171764 -0.5803031 -0.16832359
0.35038754 0.2179481 -0.3722906 0.111983165 -0.015557999 -0.35924366 0.43265286 0.082535096
-0.0024475758 0.25216475 -0.08059806 -0.34209865 -0.044952787 0.18298692 0.028766992 0.15248889

Actor.0.bias f4 [2]
00000000: 47b7 2dbd efae b33d
-0.042411115 0.087736

Critic.0.weight f4 [1, 24]
00000000: 8b2e ba3f e662 5640 c6e9 1940 f58a 09c0
00000010: 5790 c83f f30d 5840 b480 84c0 92ac 5640
00000020: ceed 5cc0 3f6e 5040 7cde cbbf 9894 6b40
00000030: d50a 6440 b308 3640 6987 6640 939a 4e40
00000040: 0859 1340 d89a 7940 b0ac adbc 725c 6b40
00000050: 0fb8 5240 8032 e4ba 72d7 1740 c263 3e40
1.4545454 3.3497863 2.4048934 -2.1491063 1.5669049 3.3758514 -4.140711 3.3542829
-3.4520144 3.256729 -1.5927272 3.6809444 3.5631611 2.844281 3.6020148 3.2281845
2.302309 3.900076 -0.021200508 3.6775174 3.292484 -0.001741007 2.3725247 2.9748387
