nstepTD_A2C/models/episodes_300.pt (torch_old, 1914 bytes, 5 tensors)

ActorCritic.0.weight f4 [24, 4]
0.3108801 -0.7013227 0.21884388 0.39310753 -0.07987654 0.12610225 -0.12491515 -0.11323253
0.027377153 0.4382465 0.20155838 -0.46059167 0.2636976 0.2797842 -0.39643875 -0.60600966
0.5532992 0.45018065 0.18930183 0.43034726 0.33676437 -0.117870726 -0.2738536 -0.31160748
-0.14830153 -0.21769331 -0.8669871 -0.7779448 0.1715242 -0.18979885 0.3296304 -0.30569726
-0.034710918 -0.2089589 0.32399508 0.63048714 -0.23210119 -0.25876474 0.41157678 0.169999
0.42904866 0.40450767 -0.000737941 -0.48461315 0.2002538 0.3518744 0.0633392 0.40650815
-0.064436175 0.10650834 0.546211 -0.029825082 -0.49044344 0.13272388 -0.32381433 -0.40702632
0.07346839 -0.1695055 0.3639642 0.19604684 -0.494296 -0.35480282 0.18036512 -0.09902341
0.06383617 0.46580282 -0.34048307 -0.2066327 -0.22258785 0.34246534 0.053220715 0.25254223
0.19741637 -0.16971886 0.38957667 -0.101549566 0.3849664 -0.22026592 0.07820241 -0.3498813
0.05501205 0.3070573 0.34406543 0.055909805 0.12082744 -0.097658396 0.41459185 -0.037866116
-0.298112 0.5828285 -0.23647292 -0.08427798 -0.083340555 -0.52930444 -0.4162396 0.36003333
00000000: ad2b 9f3e e289 33bf 9c18 603e 6445 c93e
00000010: 5096 a3bd f320 013e 84d3 ffbd 75e6 e7bd
00000020: 0d46 e03c d861 e03e 5265 4e3e acd2 ebbe
00000030: 5f03 873e e03f 8f3e 05fa cabe 7323 1bbf
00000040: 04a5 0d3f 147e e63e 57d8 413e 7a56 dc3e
00000050: 616c ac3e 3566 f1bd 8a36 8cbe 048b 9fbe
00000060: 5bdc 17be ffea 5ebe def2 5dbf 6427 47bf
00000070: 0aa4 2f3e a15a 42be 51c5 a83e 5a84 9cbe
00000080: 092d 0ebd 52f9 55be afe2 a53e 9b67 213f
00000090: efab 6dbe d07c 84be 31ba d23e 3814 2e3e
000000a0: 44ac db3e a11b cf3e 6272 41ba 371f f8be
000000b0: 550f 4d3e e228 b43e fcb7 813d d621 d03e
000000c0: 1df7 83bd 0b21 da3d 7cd4 0b3f bb53 f4bc
000000d0: 671b fbbe c5e8 073e feca a5be c165 d0be
000000e0: 9876 963d da92 2dbe 8459 ba3e 81c0 483e
000000f0: 5e14 fdbe b7a8 b5be a2b1 383e c9cc cabd
00000100: 8abc 823d b57d ee3e cc53 aebe 8697 53be
00000110: 12ee 63be 9e57 af3e f7fd 593d 374d 813e
00000120: 8427 4a3e c8ca 2dbe 9876 c73e 38f9 cfbd
00000130: 511a c53e 648d 61be 9628 a03d a423 b3be
00000140: 5154 613d 9d36 9d3e 5829 b03e ae01 653d
00000150: 6074 f73d 2001 c8bd 6245 d43e 8019 1bbd
00000160: 23a2 98be 4034 153f f525 72be ef99 acbd
00000170: 74ae aabd 7f80 07bf 5b1d d5be 4a56 b83e

ActorCritic.0.bias f4 [24]
0.20571291 1.0102652 0.58863914 -0.21945886 0.44185385 0.71145886 -0.17655267 0.755503
-0.3084018 0.7064972 -0.30148202 0.93769777 0.8058565 0.72163725 0.67212737 1.0274562
0.49113595 0.6122635 -0.47600698 0.7713663 1.0181051 -0.24114746 0.48512894 0.69818705
00000000: 68a6 523e 5f50 813f 0eb1 163f d3b9 60be
00000010: ab3a e23e 2b22 363f 39ca 34be a568 413f
00000020: d7e6 9dbe 00dd 343f da5b 9abe f60c 703f
00000030: 9d4c 4e3f 38bd 383f 8a10 2c3f af83 833f
00000040: 2c76 fb3e 4dbd 1c3f 30b7 f3be 4378 453f
00000050: 4551 823f 5cef 76be d262 f83e 63bc 323f

Actor.0.weight f4 [2, 24]
-0.2586805 0.07711063 0.021146419 0.31422955 -0.050690793 -0.023322076 0.027502943 -0.0012017078
0.12145705 -0.027119372 0.04485248 -0.08238762 -0.12713699 0.042290006 -0.106009275 -0.015525293
0.25517404 0.006350642 -0.008161038 -0.07395324 0.15941393 -0.17652057 0.2219382 -0.25227588
-0.046661057 -0.05172633 0.00034476322 0.06780736 0.41039646 -0.15256906 -0.07540257 -0.03449484
-0.048083074 0.14282289 -0.2611492 -0.027962945 -0.09616018 -0.2313905 0.3575107 0.12077935
0.04318168 0.046735283 -0.08059806 -0.13095064 -0.119930156 0.18298692 -0.06865445 0.20659226
00000000: c571 84be 2eec 9d3d 413b ad3c b2e2 a03e
00000010: 26a1 4fbd f00d bfbc da4d e13c 9f82 9dba
00000020: 79be f83d 7229 debc 3cb7 373d d7ba a8bd
00000030: 3330 02be 4938 2d3d 641b d9bd cc5d 7ebc
00000040: 2ca6 823e 0c19 d03b e0b5 05bc cc74 97bd
00000050: 683d 233e cfc1 34be c443 633e 4e2a 81be
00000060: aa1f 3fbd fdde 53bd 56c1 b439 96de 8a3d
00000070: 7c1f d23e 103b 1cbe aa6c 9abd 764a 0dbd
00000080: c2f2 44bd 2a40 123e 59b5 85be 8c12 e5bc
00000090: a1ef c4bd a2f1 6cbe a40b b73e 2a5b f73d
000000a0: 46df 303d 7f6d 3f3d 9810 a5bd ed17 06be
000000b0: f19d f5bd ec60 3b3e b49a 8cbd ec8c 533e

Actor.0.bias f4 [2]
-0.05714715 0.10247216
00000000: 2113 6abd ecdc d13d

Critic.0.weight f4 [1, 24]
0.83527076 2.42505 1.6105454 -0.5160712 0.97025394 2.2713625 -1.898496 2.3393786
-1.1573822 2.5430038 -0.61226815 2.758803 2.6826565 2.1091073 2.7142415 2.551879
1.4799566 3.1004517 -0.021200508 2.5765274 2.3580482 -0.001741007 1.6031914 2.228813
00000000: 4ed4 553f 0534 1b40 5a26 ce3f 3e1d 04bf
00000010: 9062 783f 015e 1140 eb01 f3bf 61b8 1540
00000020: 1a25 94bf 93c0 2240 9bbd 1cbf 3a90 3040
00000030: a5b0 2b40 9dfb 0640 22b6 2d40 fc51 2340
00000040: 386f bd3f cd6d 4640 b0ac adbc d3e5 2440
00000050: 43ea 1640 8032 e4ba 6035 cd3f dfa4 0e40
