nstepTD_A2C/models/episodes_800.pt (torch_old, 1914 bytes, 5 tensors)

ActorCritic.0.weight f4 [24, 4]
00000000: aa6e fe3e 4606 33bf 0422 5139 46b8 9b3e
00000010: d5b2 b43d 38c7 933d 4a86 8bbe c01d 2cbe
00000020: ddc9 4d3d 2bad 7f3e af0c 033e feac d2be
00000030: 8e1c ab3e 0644 63be c74a 97bf cf9c 59bf
00000040: d014 b63e 15f6 123e 79b1 243e 19a3 fc3e
00000050: 99fc e83e 26e5 58be 2a21 d9be e1b1 b1be
00000060: d309 adbe 4850 09bf 59ba b0bf 6184 81bf
00000070: 663b af3e 6811 7abe 693f 373e dd6c b9be
00000080: ef5d 86be 5716 1c3e 8ffb a23f fb65 773f
00000090: 1b15 0bbd ce72 8dbe 5276 973e 8ad1 fe3d
000000a0: 295f 383f 1964 d73e b942 b9be 89bb 02bf
000000b0: 54bb 903e 1fad 7b3e 1b87 76bd 01a4 bb3e
000000c0: 7e75 ca3d 48e0 6c3d 5a3c d83e 43c8 91bd
000000d0: b68e 95be 1701 af3d aff3 fbbe 761d efbe
000000e0: 4400 6f3e 8c18 57be 1fd6 893e e898 2f3e
000000f0: 3730 71be 13dc abbe 3228 7b3d 0537 19be
00000100: 6fd3 823d 93a9 693e 52b4 e4be 863e 22be
00000110: 0636 81bd 8499 973e 6b07 73bd 30c7 5e3e
00000120: 8427 4a3e c8ca 2dbe 9876 c73e 38f9 cfbd
00000130: 48a4 043f 2d62 94be 1e40 8cbd 550e c8be
00000140: 6a07 603e 8767 7d3e f31c 483e 18ab e03a
00000150: 6074 f73d 2001 c8bd 6245 d43e 8019 1bbd
00000160: 9c6b 3fbe c9c2 f13e 4842 b4be 6bae d6bd
00000170: 312f 113e e25d ffbe 25d2 02bf 3310 963e
0.49693805 -0.6993145 0.00019944465 0.30414027 0.08823172 0.07215732 -0.27250892 -0.16808224
0.05024134 0.24968402 0.12797807 -0.41147608 0.33420223 -0.22193918 -1.1819695 -0.85004896
0.35562754 0.14351685 0.16083325 0.49343184 0.45505217 -0.21181163 -0.42408115 -0.34706023
-0.33796558 -0.53638124 -1.3806869 -1.0118524 0.34225005 -0.24420702 0.17895283 -0.3621587
-0.2624354 0.15242897 1.273302 0.96639985 -0.033955675 -0.27626652 0.2958246 0.1244231
0.720202 0.42068556 -0.36183718 -0.51067406 0.2826792 0.24577759 -0.06018744 0.36648563
0.09885691 0.05783108 0.42233545 -0.07118275 -0.29210442 0.0854513 -0.49209353 -0.46702164
0.23339945 -0.21005458 0.26921174 0.17148173 -0.23553549 -0.3356634 0.06131763 -0.14962395
0.06387984 0.22818594 -0.44668823 -0.15844163 -0.06309132 0.2960931 -0.059333246 0.21755672
0.19741637 -0.16971886 0.38957667 -0.101549566 0.51813173 -0.28981152 -0.06848167 -0.39073434
0.21877828 0.24746524 0.19542293 0.0017140834 0.12082744 -0.097658396 0.41459185 -0.037866116
-0.18693393 0.47218922 -0.3520682 -0.10482486 0.14178158 -0.49876314 -0.51101905 0.29309234

ActorCritic.0.bias f4 [24]
00000000: 3566 113f a667 a03f dd26 663f adc0 1ebe
00000010: 07e8 573f 7bb6 7b3f 29d4 2dbe 2a22 803f
00000020: d145 93bd 87bc 753f 033f 7dbe 900d 993f
00000030: fb01 863f 96c8 793f 93db 693f 2b55 a63f
00000040: 6144 523f 4299 593f 30b7 f3be 25af 843f
00000050: 1093 a13f 5cef 76be da60 403f 7a95 7b3f
0.5679658 1.2531631 0.8990305 -0.15503187 0.8433842 0.9832532 -0.16975464 1.0010426
-0.07191051 0.95990795 -0.24731068 1.1957264 1.0469354 0.97571695 0.9135067 1.2994741
0.8213559 0.8499948 -0.47600698 1.036595 1.2623005 -0.24114746 0.75147784 0.9827496

Actor.0.weight f4 [2, 24]
00000000: 8f2c 2ebe 110c 033e 05f7 a23d bc86 5b3f
00000010: 264b 93be 1925 913e 0a34 143f ae9f 2b3e
00000020: cfbf d8be ac85 09be feb3 1b3e 73b3 5dbe
00000030: 4f34 5dbe c7d3 2b3e 4f22 41be 5ba5 f5ba
00000040: d506 aa3e 622e 64be e0b5 05bc da1c 4b3e
00000050: 3928 be3d cfc1 34be f7ed f53d 2fab 4fbe
00000060: e77e 0abe 811b d2bd fde6 6dbd 1173 f3be
00000070: 26bb 253f 6333 ebbe 2677 20bf 482d 50be
00000080: 0951 fe3e 5c00 803e 5e98 bcbe 6b67 d93d
00000090: 0576 eebb d6bb b6be fe55 e13e ed65 db3d
000000a0: 2a25 0abd 4045 8d3e 9810 a5bd ab77 cebe
000000b0: 9c96 5abd ec60 3b3e 02fd 073d 8ee3 203e
-0.17009185 0.12797572 0.079572715 0.85752463 -0.2876827 0.28348616 0.57891905 0.16760132
-0.42333838 -0.13429898 0.1520538 -0.21650486 -0.21601985 0.16780005 -0.18860744 -0.0018741296
0.33208337 -0.22283319 -0.008161038 0.19835225 0.092850156 -0.17652057 0.12008279 -0.20280145
-0.13524972 -0.10259152 -0.058081616 -0.47548726 0.6473869 -0.45937642 -0.62681806 -0.20329773
0.496712 0.25000274 -0.36834997 0.106154285 -0.0072772526 -0.35690182 0.4401092 0.107128
-0.03372685 0.27591896 -0.08059806 -0.40325674 -0.05336629 0.18298692 0.03320027 0.15711805

Actor.0.bias f4 [2]
00000000: 7378 43bd 7c8f be3d
-0.04772229 0.09304711

Critic.0.weight f4 [1, 24]
00000000: 7d1f fd3f 65b4 6640 9ac9 2240 bbe4 13c0
00000010: 814c e43f ad85 7940 775d 8cc0 0912 7540
00000020: f3bf 7fc0 1367 6140 cdde edbf f0d5 7a40
00000030: a948 7340 122d 3d40 95ad 7f40 d3c4 5c40
00000040: 85ba 1d40 68e3 7d40 b0ac adbc 4574 8740
00000050: 072b 6140 8032 e4ba ebec 1340 135c 5740
1.9775234 3.6047604 2.5435548 -2.3108356 1.7835847 3.898784 -4.3864093 3.8292258
-3.9960907 3.5219162 -1.8583618 3.9193077 3.8013098 2.9558759 3.9949696 3.4495132
2.4645092 3.9670048 -0.021200508 4.232943 3.5182512 -0.001741007 2.3113353 3.3649948
