nstepTD_A2C/models/episodes_100.pt (torch_old, 1914 bytes, 5 tensors)

ActorCritic.0.weight f4 [24, 4]
0.25956503 -0.6603959 0.40636277 0.43130475 -0.055289786 0.13525128 -0.18599178 -0.15021618
0.11544889 0.48110756 0.008044697 -0.5854723 0.16093202 0.31418836 -0.1607246 -0.52296084
0.50877 0.37048897 0.2998635 0.54722553 0.36803085 -0.08437787 -0.3478971 -0.3744218
-0.32171193 -0.30192158 -0.43712538 -0.52041775 0.19793841 -0.17593059 0.26348862 -0.34825385
0.06690324 -0.134215 -0.03875779 0.4209471 -0.2572275 -0.33223066 0.40553868 0.2177952
0.30681956 0.38699794 0.27760127 -0.36998734 0.22645861 0.36116192 -0.0010391561 0.3677301
-0.038070224 0.11639856 0.48129535 -0.06914738 -0.45287064 0.19326063 -0.4372456 -0.51379055
0.08277095 -0.19395575 0.31068894 0.18600178 -0.46605814 -0.34413466 0.11162879 -0.14067209
0.14681134 0.5054271 -0.5216355 -0.32364085 -0.19726488 0.3524729 -0.0104648555 0.21385694
0.19741637 -0.16971886 0.38957667 -0.101549566 0.4117646 -0.20571004 0.012698627 -0.39329776
0.07598124 0.31443915 0.28948534 0.023079757 0.12082744 -0.097658396 0.41459185 -0.037866116
-0.22607878 0.60833305 -0.38910064 -0.1756137 -0.12209774 -0.60293585 -0.37292045 0.42938244
00000000: b5e5 843e b50f 29bf c80e d03e fad3 dc3e
00000010: 8b77 62bd 507f 0a3e a174 3ebe 45d2 19be
00000020: 7870 ec3d bb53 f63e e8cd 033c 83e1 15bf
00000030: 5dcb 243e 4cdd a03e fd94 24be c3e0 05bf
00000040: c03e 023f bbb0 bd3e b587 993e f916 0c3f
00000050: 8a6e bc3e 4ece acbd 921f b2be 37b4 bfbe
00000060: 6db7 a4be 7795 9abe e6ce dfbe 193a 05bf
00000070: 5eb0 4a3e 2627 34be fbe7 863e 544e b2be
00000080: 9104 893d a86f 09be 7dc0 1ebd 6186 d73e
00000090: 53b3 83be 231a aabe c4a2 cf3e b405 5f3e
000000a0: 7417 9d3e 9824 c63e c121 8e3e fb6e bdbe
000000b0: c4e4 673e 37ea b83e 4b34 88ba 1f47 bc3e
000000c0: 86ef 1bbd 5e62 ee3d 586c f63e 249d 8dbd
000000d0: a9de e7be 1de6 453e a8de dfbe c787 03bf
000000e0: d183 a93d 569c 46be 9f12 9f3e 4077 3e3e
000000f0: 2c9f eebe 6b32 b0be a39d e43d 580c 10be
00000100: b655 163e ac63 013f e789 05bf 41b4 a5be
00000110: ceff 49be 5477 b43e c974 2bbc 50fd 5a3e
00000120: 8427 4a3e c8ca 2dbe 9876 c73e 38f9 cfbd
00000130: cfd2 d23e a7a5 52be e70d 503c 535e c9be
00000140: 0d9c 9b3d 2bfe a03e 6c37 943e c211 bd3c
00000150: 6074 f73d 2001 c8bd 6245 d43e 8019 1bbd
00000160: 3281 67be b7bb 1b3f 3338 c7be 14d4 33be
00000170: 610e fabd 015a 1abf 6eef bebe 04d8 db3e

ActorCritic.0.bias f4 [24]
-0.049811505 0.7527336 0.28360724 -0.20877203 -0.014288882 0.4418336 -0.37783295 0.4893531
-0.46729544 0.38670728 -0.33336926 0.6847563 0.54823875 0.42928004 0.38294688 0.77134246
0.1744242 0.35652924 -0.47600698 0.518988 0.7551622 -0.24114746 0.16837336 0.3582483
00000000: 2607 4cbd 26b3 403f f834 913e 56c8 55be
00000010: ea1b 6abc 0338 e23e 5273 c1be 7d8c fa3e
00000020: 5941 efbe 7ffe c53e 60af aabe 304c 2f3f
00000030: 6059 0c3f 98ca db3e 9d11 c43e b376 453f
00000040: 429c 323e 008b b63e 30b7 f3be 66dc 043f
00000050: 4f52 413f 5cef 76be 116a 2c3e 526c b73e

Actor.0.weight f4 [2, 24]
-0.16913061 0.06776026 -0.05290035 0.246427 0.10553973 -0.08746295 -0.010886976 -0.02481658
0.18894115 0.06035059 -0.004200589 -0.027701057 -0.096144564 -0.025177749 -0.025958126 0.0073568216
0.17314681 0.073692255 -0.008161038 -0.11931292 0.18156809 -0.17652057 0.17139766 -0.18330476
-0.1362109 -0.042375937 0.07439154 0.13560951 0.25416565 -0.08842823 -0.03701264 -0.010879997
-0.11556707 0.055352908 -0.212096 -0.0826495 -0.12715262 -0.16392285 0.2774596 0.097897135
0.12520888 -0.020606387 -0.08059806 -0.08559115 -0.14208433 0.18298692 -0.018114017 0.13762116
00000000: 9330 2dbe e4c5 8a3d 0aae 58bd 5c57 7c3e
00000010: 3725 d83d c61f b3bd 495f 32bc 244c cbbc
00000020: ca79 413e 2e32 773d 18a5 89bb 54ed e2bc
00000030: 71e7 c4bd 9141 cebc 23a6 d4bc 7e11 f13b
00000040: 664d 313e f7eb 963d e0b5 05bc 555a f4bd
00000050: fcec 393e cfc1 34be de82 2f3e 3eb4 3bbe
00000060: df7a 0bbe 6492 2dbd 975a 983d 38dd 0a3e
00000070: 0022 823e dc19 b5bd 919a 17bd 0442 32bc
00000080: 6eae ecbd bbb9 623d b22f 59be 2444 a9bd
00000090: 4c34 02be 64db 27be 2f0f 8e3e 4b7e c83d
000000a0: c236 003e bace a8bc 9810 a5bd 6a4a afbd
000000b0: 8e7e 11be ec60 3b3e d963 94bc 90ec 0c3e

Actor.0.bias f4 [2]
-0.047292825 0.09261786
00000000: 1fb6 41bd 6fae bd3d

Critic.0.weight f4 [1, 24]
0.69375783 1.3468361 1.0678107 0.18887231 0.28687072 1.2741218 -0.256048 1.2320977
-0.18580112 1.3367951 0.1694309 1.5725194 1.4835643 1.2647837 1.4233259 1.4378395
0.94934076 1.766316 -0.021200508 1.5496061 1.2201397 -0.001741007 0.8491124 1.3284494
00000000: 1d9a 313f 2065 ac3f 05ae 883f be67 413e
00000010: b8e0 923e 6c16 a33f b918 83be 61b5 9d3f
00000020: a642 3ebe 1a1c ab3f 4b7f 2d3e 5148 c93f
00000030: 6fe5 bd3f 6fe4 a13f 8b2f b63f 200b b83f
00000040: ff07 733f a516 e23f b0ac adbc 7e59 c63f
00000050: 8a2d 9c3f 8032 e4ba 6e5f 593f a10a aa3f
