nstepTD_A2C/models/episodes_400.pt (torch_old, 1914 bytes, 5 tensors)

ActorCritic.0.weight f4 [24, 4]
000000 e7 1e ba 3e 87 68 34 bf cd 15 1a 3e 0d 00 ba 3e
       0.36351702 -0.70471996 0.15047379 0.36328164
000010 80 0a 23 bd 93 d5 0b 3e 4a ff 13 be cc 28 f6 bd
       -0.039804935 0.13655691 -0.14452854 -0.120195
000020 80 fa 77 3d ca 60 e3 3e f9 06 4d 3e cd 82 e6 be
       0.06054163 0.44409782 0.20022191 -0.45021668
000030 25 8d 7b 3e a5 88 2e 3e 97 56 17 bf fb b1 31 bf
       0.24565561 0.17044313 -0.591165 -0.694122
000040 b5 fe 0a 3f 11 0f da 3e c8 21 1d 3e dd e7 d0 3e
       0.542949 0.4258962 0.15344918 0.40801898
000050 e6 f0 c0 3e 78 6c dc bd 53 a4 96 be 35 56 a3 be
       0.3768379 -0.10762876 -0.29422244 -0.31901708
000060 3e eb 21 be 2d 8c 9c be 0d 0e 84 bf 5b 88 5d bf
       -0.15812394 -0.30575696 -1.0316788 -0.86536187
000070 4a 64 58 3e 4c 4b 37 be b4 58 9f 3e 21 af 9f be
       0.21132007 -0.17899817 0.31122363 -0.311883
000080 cc aa 86 bd 08 49 fc bd 54 51 11 3f 80 8d 3d 3f
       -0.06575546 -0.12318617 0.5676472 0.74044037
000090 49 77 45 be 6b 8e 7c be 23 31 cb 3e 8d 51 2a 3e
       -0.19283785 -0.24663703 0.39685926 0.16632672
0000a0 40 23 ea 3e 29 55 c1 3e 81 b4 0d be 2b e4 0a bf
       0.4573002 0.37760285 -0.13838388 -0.54254407
0000b0 74 85 72 3e 0f 73 b9 3e c9 ee 3c 3d be 20 cd 3e
       0.23683721 0.36220595 0.04612616 0.40064043
0000c0 eb 2d cd bc 4c e8 f0 3d 11 7d 07 3f 71 e3 0f bd
       -0.02504631 0.11763057 0.5292521 -0.035129014
0000d0 17 6d e5 be 17 3e 11 3e c9 29 b1 be 5d 60 d4 be
       -0.4480979 0.14183842 -0.34602192 -0.4147977
0000e0 9e 3c e4 3d 59 73 20 be 38 99 b4 3e 6f 28 47 3e
       0.11144374 -0.15669002 0.35273147 0.19449018
0000f0 06 3d e9 be 28 d1 af be 5f b0 28 3e d4 09 d4 bd
       -0.4555437 -0.3433926 0.1647353 -0.10353437
000100 e9 e2 d0 3d d3 03 ee 3e 86 ee b3 be dd 6e 4b be
       0.1019953 0.46487293 -0.35142916 -0.1986651
000110 1d d6 3b be 03 09 b5 3e d9 8c 15 3d ee 4d 7d 3e
       -0.18343396 0.35358438 0.036511276 0.24736759
000120 84 27 4a 3e c8 ca 2d be 98 76 c7 3e 38 f9 cf bd
       0.19741637 -0.16971886 0.38957667 -0.101549566
000130 79 43 d9 3e 7f cf 56 be 7a f4 72 3d 28 7b b6 be
       0.4243429 -0.20977591 0.059315182 -0.35640836
000140 30 a3 c4 3d 18 5e a2 3e b6 15 a5 3e 94 54 43 3d
       0.09601438 0.31712413 0.32243127 0.04768808
000150 60 74 f7 3d 20 01 c8 bd 62 45 d4 3e 80 19 1b bd
       0.12082744 -0.097658396 0.41459185 -0.037866116
000160 d1 1e 84 be c5 88 16 3f f8 10 83 be 99 5a b4 bd
       -0.2580476 0.58802444 -0.25598884 -0.08806343
000170 7c 75 26 bd db 4c 03 bf 46 09 dc be 18 ab b6 3e
       -0.040639386 -0.5128915 -0.42975825 0.3567741

ActorCritic.0.bias f4 [24]
000000 8a f5 77 3e 81 de 85 3f 0e 20 22 3f e2 bb 3a be
       0.2421476 1.0458528 0.6333016 -0.18235734
000010 2d de 02 3f 67 42 3f 3f 0f 4a 02 be 28 88 4a 3f
       0.51120263 0.74710697 -0.12723564 0.7911401
000020 25 b1 67 be 93 ea 3d 3f d6 ec 8e be 8d 26 79 3f
       -0.22626169 0.74186057 -0.27915066 0.9732445
000030 8f 57 57 3f b3 20 42 3f 07 00 35 3f 21 fd 87 3f
       0.8411798 0.75831145 0.70703167 1.0624124
000040 e5 bc 09 3f 03 b9 25 3f 30 b7 f3 be 6c 74 4e 3f
       0.53803855 0.6473543 -0.47600698 0.80646396
000050 5e ee 86 3f 5c ef 76 be 56 e0 06 3f 4a 3d 3c 3f
       1.0541494 -0.24114746 0.5268606 0.7353102

Actor.0.weight f4 [2, 24]
000000 22 57 8a be 9b d7 c5 3d 7d 19 5e 3d 52 5a c4 3e
       -0.27019602 0.09660264 0.054223526 0.3835016
000010 4e 26 d7 bd a1 6e 02 3d bc 30 15 3e e9 a9 03 3d
       -0.10505353 0.031843785 0.14569372 0.03214446
000020 e6 49 9c 3d bc e4 28 bd 10 23 d1 3d 73 26 da bd
       0.076312825 -0.041233763 0.10211766 -0.10651865
000030 4a 89 08 be 40 21 c0 3d 53 bd fb bd b9 4c cd 3a
       -0.13333622 0.09381342 -0.1229197 0.0015663124
000040 50 c6 93 3e 29 9e bb bc e0 b5 05 bc c6 82 e0 bc
       0.28862238 -0.022902565 -0.008161038 -0.027406108
000050 71 1f 1d 3e cf c1 34 be 73 2d 6d 3e fd 59 7f be
       0.15344025 -0.17652057 0.23161869 -0.24936672
000060 bf f4 0f bd e9 da 91 bd 57 12 06 bd 74 f3 bf ba
       -0.035145517 -0.07121832 -0.032732334 -0.0014644698
000070 e7 f4 ed 3e 6e b8 54 be 55 3d 46 be 40 f0 8a bd
       0.46475908 -0.2077348 -0.19359334 -0.06784105
000080 09 98 40 bb 2f b4 20 3e 31 07 a3 be e3 1f 7b bb
       -0.0029387495 0.15693735 -0.31841424 -0.0038318567
000090 61 3d b8 bd 1b da 90 be 26 b4 bf 3e 36 5a d4 3d
       -0.08996082 -0.282914 0.3744213 0.10368769
0000a0 78 78 1f 3c e0 9f 9b 3d 98 10 a5 bd ff c1 35 be
       0.009733312 0.07598853 -0.08059806 -0.17749785
0000b0 f9 61 e9 bd ec 60 3b 3e 11 6e a0 bd 5d 92 50 3e
       -0.1139564 0.18298692 -0.078334935 0.20368333

Actor.0.bias f4 [2]
000000 3e 2c 3d bd 7d 69 bb 3d
       -0.04618477 0.0915098

Critic.0.weight f4 [1, 24]
000000 62 db 5b 3f ae 15 26 40 6b 64 e2 3f 5f 68 4d bf
       0.85881627 2.5950732 1.7686895 -0.8023738
000010 13 b4 8e 3f c1 29 1d 40 e1 6e 25 c0 b1 95 20 40
       1.1148704 2.4556735 -2.5848925 2.5091364
000020 ef 05 de bf 72 65 2b 40 2f 8a 47 bf 25 58 3b 40
       -1.7345561 2.6780667 -0.77945226 2.927255
000030 f8 07 36 40 73 25 11 40 ce 59 37 40 20 75 2c 40
       2.8442364 2.2679107 2.8648562 2.6946487
000040 88 60 d4 3f af f2 50 40 b0 ac ad bc 2f 4a 30 40
       1.6591959 3.2648122 -0.021200508 2.7545278
000050 b3 b6 21 40 80 32 e4 ba d7 ad e3 3f 3a 0e 17 40
       2.526776 -0.001741007 1.7787427 2.3602433
